plugins/MultiAgentCRTools/weights/actor.pt (torch, 295720 bytes, 8 tensors)

layers.0.weight f4 [256, 24]
000000 a3 23 62 3e ac 40 88 3f 13 7d b3 3d 88 8a d6 3e
       0.22083907 1.0644736 0.087640904 0.41902566
000010 0c 8d 4e be 89 03 da 3d 18 20 2d 3e 8d a3 17 be
       -0.20170993 0.106452055 0.16906774 -0.14808483
000020 1e 9b 46 3e c1 d6 fc bd 30 96 2a ba 01 e8 4a 3d
       0.1939511 -0.123456486 -0.0006507365 0.049537662
000030 10 6c 0a be 28 64 76 3d 4c b9 0c bd 9b 20 4b bd
       -0.13517785 0.06015411 -0.0343564 -0.049591642
000040 b3 91 15 3e bd 3a 2c 3e 56 46 05 3e 7a 2f 60 be
       0.14606361 0.16819282 0.13015112 -0.21893111
000050 2c 8a 05 3e dc 50 b6 3e d3 6a ae 3d 11 b6 1a 3d
       0.1304099 0.35608566 0.08516469 0.03777129
000060 c2 ea 21 3d 56 89 84 bf aa 05 6e be 57 f1 1a be
       0.039530523 -1.0354412 -0.23244348 -0.15131126
000070 87 b5 7d be 40 cb e7 bc cf 5b 85 be c9 c0 49 be
       -0.24776278 -0.02829516 -0.26046607 -0.19702448
000080 ed 28 f2 bd ae a1 fe bc 58 2f 3c be 13 d7 d6 3d
       -0.11824212 -0.031082954 -0.18377435 0.10490241
000090 fa 0a ac bc f3 09 25 be d3 ad 28 bd 0b 71 9e bd
       -0.021001328 -0.16117077 -0.041181397 -0.07736405
0000a0 70 66 65 bd c0 eb e2 3d 1e c2 3a 3e 29 56 fb bd
       -0.056005895 0.11080122 0.18238112 -0.12272293
0000b0 df 5c 46 be d0 23 c1 3e 4c 15 93 bd ae e0 2f 3c
       -0.19371365 0.37722635 -0.071817964 0.01073472
0000c0 5f 1d 3b bd 1b 06 f7 be e1 e4 2d be 50 cf 6f be
       -0.045682307 -0.48246846 -0.16981842 -0.23418927
0000d0 6b 09 54 be 27 04 8e 3d c3 14 c6 3d a4 81 41 3d
       -0.20706718 0.06934386 0.09671929 0.047242776
0000e0 78 e9 00 be 81 85 ce bb 4b 2b 09 3e a8 45 fd 3d
       -0.12589061 -0.006302536 0.13395421 0.123668015
0000f0 80 f5 44 3e 88 21 de 3d fb a1 cd 3d 68 23 f0 3d
       0.19234276 0.10846239 0.10040661 0.11725503
000100 0f 85 c6 bd fe d4 59 3d 3c 7e 2c bd 43 7c f6 3c
       -0.09693348 0.05318164 -0.042112574 0.03008855
000110 64 ef 15 be 44 34 2f be 32 a7 23 bb 29 a5 1c 3e
       -0.14642102 -0.17109782 -0.0024971482 0.15297379
000120 64 1c 51 bc da d3 1a 3e e0 cd 40 3e ce 1e 09 be
       -0.0127631165 0.15119877 0.18828535 -0.13390657
000130 b0 cb 56 bd cf 7f 55 be af 7d 00 be 57 45 a4 3e
       -0.052440345 -0.20849536 -0.12547944 0.32084152
000140 0d 66 15 3d 08 be d1 3c 00 8d 6d 3d 43 7c 20 bd
       0.036474276 0.02560331 0.057995796 -0.039181005
000150 6d c3 d5 3d 45 c2 05 3e 5d 73 07 bd 0a 7c d6 bc
       0.10437665 0.13062389 -0.033069003 -0.026182193
000160 c4 4e 9a bd 5e d4 02 bd 1c 0f 3f 3e a3 34 21 3e
       -0.075345546 -0.03194081 0.18658108 0.15742736
000170 a5 ee 50 be 7e 97 85 bd 00 c1 40 3e 46 53 45 bc
       -0.20403536 -0.065230355 0.18823624 -0.01204378
000180 6b c4 c4 3c 2d 5d fd be 95 7f 04 3d b9 cc d2 3b
       0.02401944 -0.4948515 0.032348234 0.0064330962
000190 84 1f 92 bd a8 eb 58 3e a8 eb 09 3d 00 dd a9 be
       -0.071349174 0.21183646 0.033672005 -0.33176422
0001a0 91 60 1c 3e 53 99 8e bd 63 ed f3 3d 25 22 82 bd
       0.15271212 -0.06962838 0.11910512 -0.06354169
0001b0 9a 0c 32 3e 81 69 ea bd e5 80 8d 3d ca 05 1f 3e
       0.1738762 -0.114459045 0.0690935 0.15529552
0001c0 1a 36 e8 3b d9 7c a8 3c 87 8f 15 be cd f1 6c 3e
       0.0070865275 0.020567345 -0.14605533 0.23139115
0001d0 2e 95 c2 3d bc f1 9e 3d 51 68 19 be 38 5a 29 3d
       0.0950111 0.07760951 -0.149812 0.041345805
0001e0 c3 0b f3 bd 70 86 56 be 3c 53 f4 3d ca dc 55 ba
       -0.11867478 -0.20949721 0.11929938 -0.00081582053
0001f0 b4 63 66 3e 2f 77 b9 3d 10 23 41 3e 84 7d 67 3e
       0.22498971 0.090559356 0.18861032 0.22606474
000200 c3 d8 5b be e9 ae 9e 3d 5b 16 eb bd a6 55 d3 3c
       -0.21469407 0.07748205 -0.11478873 0.025797676
000210 ac 74 31 be ea ce b8 bd 21 f2 0b 3e 2c 7d a2 3b
       -0.17329663 -0.09023841 0.13666584 0.0049587693
000220 57 f9 6d be 8e 90 a6 bd 12 f7 e3 3d 24 f4 53 3e
       -0.23239647 -0.0813304 0.11131109 0.20698601
000230 8d 4a 5f 3d 72 db 7a 3d 9c 31 7f bd 29 d8 83 be
       0.054514457 0.061244436 -0.06230317 -0.25750855
000240 aa 0e 46 3e d9 52 35 3f ed 7e 33 bd 43 26 c9 3d
       0.19341531 0.7082954 -0.043822218 0.09821751
000250 69 8b 0a 3f 11 9d 89 be 33 e9 53 3d b5 8c 4a be
       0.54118973 -0.26877645 0.051736068 -0.19780238
000260 dd 0f e2 bd 9d 3b 46 bc e3 11 ff 3d 41 e1 b1 3c
       -0.11038182 -0.012099174 0.124545835 0.021713855
000270 bd 7c 2a 3d 21 3e 57 3b 33 24 69 3d 7a ff 50 bc
       0.041622866 0.0032843428 0.056919288 -0.012756223
000280 40 de 10 3e c7 8d 73 3d 38 f0 be 3c 06 7f f8 bd
       0.14147282 0.05946138 0.023307905 -0.12133603
000290 9c 1d e7 bb ad b6 64 be 9c a8 a9 3e f1 a5 89 3e
       -0.0070530903 -0.2233531 0.3313645 0.26884416
0002a0 b2 0b 75 bd d4 f0 36 be 5a 3d 0d 3d 98 d3 36 3e
       -0.059825607 -0.17865306 0.034482338 0.17854154
0002b0 1a 43 f7 3c ed 0d 1e 3e c7 6f 9e 3e f3 ab ff 3d
       0.030183364 0.15435 0.30944654 0.124839686
0002c0 b0 f6 f8 3d de c9 80 3d 18 a8 5b 3d c8 c9 18 be
       0.12156427 0.06288503 0.053627104 -0.14920723
0002d0 46 10 28 be 79 4b 65 bc 39 f8 1c 3d 2f d1 d6 bd
       -0.16412458 -0.013995045 0.03832266 -0.10489117
0002e0 0b c2 4b 3c 8d 50 6c 3e 03 3d 24 3e d5 45 fb bc
       0.0124364 0.23077603 0.16038899 -0.030672947
0002f0 7d 7b a2 ba 1b 38 ef 3d 97 28 ea 3a ca d8 7f be
       -0.0012396422 0.11680623 0.001786488 -0.24985042
000300 98 c3 6f bd 44 c2 d6 3d 71 45 20 be 0c 23 b7 be
       -0.058536142 0.10486272 -0.1565149 -0.35768926
000310 96 02 00 3d f4 5b ce 3d 7c da 1f 3e a3 c0 7f 3e
       0.031252466 0.100761324 0.15610689 0.24975829
000320 dc b5 40 bd 0e c1 fe 3c ba 22 d0 bd 8a 4b 18 bd
       -0.047048435 0.031097915 -0.101628736 -0.037181415
000330 6d 40 27 3e d6 f5 67 3e 83 6a 0d 3e 4e 13 9b 3e
       0.1633317 0.22652373 0.13810162 0.30288166
000340 6c de a0 3e 31 b8 27 3d 4d b4 0e 3d 42 13 d6 bd
       0.31419694 0.040947143 0.034839917 -0.10452892
000350 ff c7 83 bd 01 bf fc bd ca ac b1 3d 6f 47 51 3e
       -0.064346306 -0.123411186 0.08675535 0.20437406
000360 d5 77 1a be c0 74 ed 3d 69 52 4a bd df c0 54 be
       -0.15084775 0.11594534 -0.049395 -0.207767
000370 04 e3 1b 3d 72 86 2c 3c 9c 0f 05 3e c3 c8 a1 bd
       0.038058296 0.010530101 0.12994236 -0.078996204
000380 3f 47 96 bc 06 ae 8a bd b3 63 a1 3d c4 fe 92 3d
       -0.01834452 -0.067714736 0.07880344 0.07177499
000390 47 3c 5a be e3 7c 50 3e 89 6c a4 3d b4 66 38 3d
       -0.21312056 0.2036014 0.08028514 0.04501982
0003a0 0e 78 4e 3e 34 e1 28 be 31 1a 99 3d e2 17 20 be
       0.20162985 -0.16492158 0.07475699 -0.1563411
0003b0 00 0c 55 be 1b 3d ab be 67 2b 30 3d 58 67 0c 3c
       -0.20805359 -0.33445057 0.04301014 0.008569561
0003c0 9d 12 07 be 1a 02 a8 3b 92 a9 47 3e 56 17 a4 be
       -0.13190694 0.0051272037 0.1949828 -0.32049054
0003d0 02 fc 5e be 58 9d 59 bd 00 00 a6 be 5d cf 23 3e
       -0.21775821 -0.05312857 -0.32421875 0.15997072
0003e0 10 8c 1e 3e 45 39 8d 3a e7 c8 06 3e 20 55 99 3d
       0.15483117 0.0010774514 0.13162576 0.074869394
0003f0 c8 41 a3 bd 1f f8 d0 3c 0e a2 1d be 11 8b 01 3d
       -0.07971531 0.025508938 -0.1539385 0.031626765

layers.0.bias f4 [256]
000000 1e 27 72 3e e2 ed 85 3d a8 08 12 bc de e1 e1 bd
       0.23647735 0.06539513 -0.008913197 -0.11029409
000010 f7 af 4e be cf 32 5a bd d9 fe 41 3e 66 a0 af 3b
       -0.20184313 -0.05327111 0.18944873 0.005359697
000020 68 d3 c0 bd 0b 95 4c bd 70 44 cd bd 37 28 50 be
       -0.094153225 -0.049946826 -0.10022819 -0.20327841
000030 d4 1a 58 3e 85 63 cb bd f2 17 22 bd fe 5b a5 bd
       0.21103984 -0.09931091 -0.039573617 -0.08074187
000040 11 0b 30 3e 9e 6b cb 3d 2a a3 59 bd c1 7d d0 bd
       0.17191721 0.09932636 -0.05313412 -0.10180236
000050 7b 37 c7 bd 40 15 44 3e 40 f6 1f 3e fd f7 c1 bd
       -0.09727379 0.19148731 0.1562128 -0.09471128
000060 49 34 02 be 14 a6 10 bd 9b 1a 22 be be 16 07 be
       -0.12715258 -0.035314634 -0.15830462 -0.13192269
000070 6a 69 aa 3d a0 a5 b1 3c 2b 77 51 bd 4a af cb 3c
       0.083208874 0.021685421 -0.051139038 0.024863858
000080 f4 41 0e 3e 0c 09 56 3e 63 c3 e6 3d a8 af c8 3d
       0.13892347 0.20901889 0.11267736 0.09799129
000090 64 26 ea 3c 6b 4f 3e 3e 1f 99 04 bd fc f1 25 3d
       0.02858276 0.18584983 -0.03237259 0.040513977
0000a0 be 7b 73 ba 19 ed 57 3d b8 75 b0 bd 10 e3 16 bd
       -0.00092881534 0.05271635 -0.08616203 -0.036837637
0000b0 dd e8 88 bc 75 e1 1c bd 6e 37 02 3e c6 8b e1 3d
       -0.0167126 -0.03830095 0.12716457 0.11012988
0000c0 d9 3d 4b be fb 99 d2 bd c8 d8 51 3d 5b 79 da 3d
       -0.19847812 -0.10283276 0.05123213 0.10667678
0000d0 1b 32 2c bd 3c bc e7 3c d7 fa 02 be 93 38 34 3e
       -0.04203997 0.028288 -0.12791 0.17599706
0000e0 c4 7c 8d be 77 3d 3d 3e 6b 1f 80 3d 0a 32 df bd
       -0.2763425 0.18480478 0.062559925 -0.10898216
0000f0 72 3e 85 be 64 34 92 3d c1 56 04 be f2 5c 21 be
       -0.26024204 0.07138899 -0.12923719 -0.15758112
000100 17 82 c3 3d 6f a6 af be 10 8e 02 bd a0 bd 13 ba
       0.09546297 -0.34306666 -0.031873763 -0.00056358613
000110 42 c8 58 be c5 7b 19 3e 8e 9b 39 be 43 e7 9d bb
       -0.21170142 0.1498862 -0.18125746 -0.0048188283
000120 93 45 0a be f3 ec 2d be b6 5e a5 bd df 39 eb 3c
       -0.13503103 -0.1698492 -0.08074705 0.028714119
000130 89 e0 19 3d 15 11 4a 3e af 82 5c 3e 03 0d 05 3d
       0.03756765 0.19733079 0.21534227 0.032483112
000140 30 f2 45 bd 62 e6 ea 3e 4e ef 35 3e 5b 17 b6 3d
       -0.04832667 0.45878893 0.17767069 0.088911735
000150 f5 3a 86 3d 74 66 86 3c 4d dc 28 bd 69 f5 9a 3d
       0.06554214 0.016406275 -0.04122572 0.075663395
000160 7a 26 22 3c 5b b2 4d 3e ec 3e d0 bd 27 49 b4 be
       0.009896869 0.20087568 -0.101682514 -0.3521206
000170 0e f8 90 3d c7 04 6c bd 32 5a 9e bd de aa 6e 3d
       0.07078563 -0.057621744 -0.07732047 0.05826842
000180 69 74 38 3e 88 8e de 3c 5c 64 3e 3e 58 58 06 bd
       0.18013157 0.027167574 0.18592972 -0.032799095
000190 0c 65 d8 3d 1c b0 9c bd cd 7d 37 be b8 07 d1 3d
       0.10566148 -0.07650778 -0.17919083 0.1020655
0001a0 04 51 f2 3d fd 41 dd 3d 4d 56 12 3e c7 01 51 3c
       0.11831859 0.10803602 0.14290734 0.012756771
0001b0 b5 b6 5f 3d 33 2b 0a 3e f1 5f 88 3e 49 b2 2e be
       0.054617602 0.13493042 0.26635697 -0.17060198
0001c0 cd 8c 31 3e 42 43 84 3e 67 ca 72 3d 2d 44 63 be
       0.17338867 0.25832564 0.059275057 -0.22193976
0001d0 9f 95 29 3e 12 38 55 be 10 1c 61 bd 32 14 98 3d
       0.16560982 -0.2082217 -0.054958403 0.07425727
0001e0 11 2f 72 3c f0 29 cc 3d 87 4f 49 3e c8 cf 8f 3d
       0.014781729 0.099689364 0.19659244 0.07022053
0001f0 a6 01 14 be 73 36 93 3c 9e 43 bf bd ee 2a 81 be
       -0.14453754 0.0179703 -0.09339069 -0.25228065
000200 fe d7 cf 3c f1 ec 5e 3e d9 7a 24 3e 9f bd 31 3e
       0.025371548 0.21770073 0.16062488 0.17357491
000210 2a e8 76 be bb 72 0a be 10 74 05 bd e1 1c 25 3d
       -0.24112001 -0.13520329 -0.03258139 0.040310744
000220 27 19 c4 be 86 1e 6b be be c0 08 bc 6d 70 0b 3c
       -0.3830044 -0.22960863 -0.008346735 0.008510691
000230 20 cf 98 bd 90 e2 87 3d 02 0e cf 3d 18 0d 1e be
       -0.07461381 0.0663501 0.10110094 -0.15434682
000240 5f 9b 4f be bf a8 b4 3e b6 ae 0c be 13 90 c3 3d
       -0.20274113 0.35284993 -0.13738522 0.09548964
000250 0a 98 12 be 35 18 4f 3d 32 c3 05 3b 4a 11 99 be
       -0.14315811 0.050560195 0.0020410535 -0.29896003
000260 b2 d1 6e 3d 91 dc eb bc a3 a2 da bc cd 9d 88 3d
       0.05830545 -0.028791698 -0.02668888 0.06670723
000270 99 03 18 be c5 9f 28 bd 46 e5 80 3e 8e 21 e5 bb
       -0.14845122 -0.041167993 0.25174922 -0.0069925254
000280 ae f4 53 3e c7 0d a4 bd 0a d8 4f 3e 17 58 d2 3d
       0.20698807 -0.0801044 0.20297256 0.10270708
000290 e0 a1 99 be 9e 67 ff 3d ae 6a bb 3d 22 c3 0f 3c
       -0.30006313 0.12470935 0.09151207 0.008774551
0002a0 69 99 2a be 9a fe 7c bd d5 19 cf 3c 15 ed 06 be
       -0.16660084 -0.061766244 0.025280872 -0.13176377
0002b0 c7 ef 0d 3e 61 ba b0 bd ea 3f 43 be cb fd 18 be
       0.13860999 -0.08629299 -0.1906735 -0.14940564
0002c0 d4 2f 48 be ac 02 88 be 03 69 77 bd aa 9e 10 3d
       -0.19549495 -0.26564538 -0.06040288 0.035307564
0002d0 ba 55 27 3f 77 92 80 3d b9 55 d6 3d f0 30 37 3e
       0.65365183 0.06277936 0.10465569 0.17889762
0002e0 a4 90 b2 3c d1 30 0b 3e e0 4f 8e bd 5e 14 0d 3e
       0.021797486 0.1359284 -0.06948829 0.137773
0002f0 37 48 b9 3d 5d 44 bf 3c 4a 7a fc 3d 0c e6 15 3e
       0.09046977 0.023348028 0.12328012 0.14638537
000300 51 16 d3 bb f6 9c 19 be da f7 cc 3d b5 54 89 3e
       -0.0064418693 -0.15001282 0.100082114 0.2682244
000310 be e2 5c bd 8f 05 f6 bd c7 4f 94 bc f5 dc a5 bd
       -0.053927176 -0.12012779 -0.018104447 -0.08098785
000320 75 18 32 3e 5a 69 03 3e 2e d2 95 be 2e 51 e0 bc
       0.17392142 0.12833157 -0.29261917 -0.02738246
000330 a0 1d 04 be 1b cb f8 bc e8 a0 12 3e 0f 8c ec 3d
       -0.12901926 -0.030370286 0.14319193 0.115501516
000340 6c 89 78 3d 78 44 e0 3d 22 d2 8a 3c 1d fa ca 3d
       0.06067793 0.109505594 0.016945902 0.099109866
000350 d7 52 d5 bd 58 bf aa 3d 63 23 c1 bb 00 77 7f 3d
       -0.10416191 0.08337277 -0.005894111 0.062369347
000360 28 41 cf bd 44 13 43 3e cb 22 46 be b5 bc 82 bd
       -0.101198494 0.19050318 -0.1934921 -0.06383649
000370 0f 57 22 bd 91 52 61 3e 7c 5f be be 35 6d b0 bd
       -0.039633807 0.22004153 -0.37182224 -0.086145796
000380 e7 7f 4c be b3 73 60 3c 05 64 27 3e 1a 2a c3 bd
       -0.19970666 0.01369946 0.16346748 -0.095295146
000390 d0 49 10 be 79 1e 36 3e 26 bc 2b bd b7 57 2d be
       -0.14090657 0.17785062 -0.04192748 -0.16927992
0003a0 96 11 2a bc 57 a8 02 bd 51 e1 cb 3d cf a7 c0 3d
       -0.010380169 -0.031898823 0.09955085 0.09407007
0003b0 b4 16 77 3e b6 28 6d 3d 8b c1 a1 3b a0 5d 98 bd
       0.24129754 0.057900153 0.004936402 -0.074397326
0003c0 41 ac b7 3c 63 27 6b be 84 e8 d9 bc fb 80 9d bd
       0.022421004 -0.22964244 -0.02660013 -0.07690617
0003d0 19 86 05 3e 1a 68 93 bd 45 c7 37 3d 34 60 27 3e
       0.13039435 -0.0719759 0.044867773 0.16345292
0003e0 f1 f0 7e be d4 81 de 3d 1c 8a 89 bd 0d 26 05 be
       -0.248966 0.108646065 -0.067157954 -0.13002796
0003f0 7b 34 69 3e 81 32 1b 3e 2c 36 9e be 9f 68 15 be
       0.22773926 0.15155984 -0.30900705 -0.14590691

layers.2.weight f4 [256, 256]
000000 7b 83 06 3d 73 67 e7 bd 4f 32 94 3d a4 81 2f 3c
       0.032840233 -0.11299028 0.07236158 0.010712061
000010 2d ae a5 3c 11 01 2f bd 71 24 b0 3c 2f a3 82 bd
       0.020224655 -0.042725626 0.021501752 -0.06378781
000020 93 7c ad bb e9 35 a7 bd 39 77 9c bd 07 cd 96 bc
       -0.0052943914 -0.081645794 -0.076399274 -0.018408312
000030 6d 29 61 bd 78 1c 8c bd fe b8 b0 bd 1f e9 4d bc
       -0.054971147 -0.068413675 -0.086290345 -0.012567787
000040 c9 65 ae 3d 18 ff 50 bd 5d c0 4b bc 9e 75 35 bd
       0.08515508 -0.051024526 -0.012436 -0.04430162
000050 a5 f0 09 bd e5 bc 00 be 70 73 ea b9 57 b7 c3 bd
       -0.033676762 -0.12572058 -0.00044717966 -0.09556454
000060 c3 b9 29 3d a9 af 66 bc 19 2d c8 bd 46 6e 57 bc
       0.04143692 -0.014079967 -0.09774227 -0.01314885
000070 fc c8 23 bd 0b 09 04 3d 62 32 af bd 1f 6b e8 3c
       -0.039986596 0.032235187 -0.08554532 0.028371392
000080 8b 1f 52 bd 64 8c 93 bd 06 93 ec bc 1e a5 c5 3c
       -0.051299613 -0.07204512 -0.0288787 0.024126586
000090 c1 73 3e 3d 07 4f e7 ba ea ce ba 3c d9 56 48 bc
       0.04649711 -0.0017647453 0.022803742 -0.012227737
0000a0 68 c6 78 3d 5a b7 aa bd c6 bd b0 3d 5f 8a 3e bc
       0.06073609 -0.08335753 0.086299464 -0.01162967
0000b0 cd 9e 97 3d b6 21 9e 3d 15 64 a7 bc fc 56 b4 3c
       0.07403336 0.077212736 -0.020433465 0.022014134
0000c0 60 2d 7d bc e1 02 bb 3b 8a c4 bc 3d c4 13 69 3d
       -0.015452713 0.0057071303 0.09217174 0.056903616
0000d0 82 cf 0a bc 6e b3 f4 39 10 13 ba bc b5 ba 95 bd
       -0.008472325 0.00046672992 -0.022714168 -0.07311002
0000e0 73 b3 a7 bd 69 df 97 bc 19 98 4e bd bf 3e 4f bb
       -0.08188524 -0.018539147 -0.05043802 -0.0031623093
0000f0 48 8d 04 bb a0 88 16 bc 55 68 b3 3d 5b f7 08 bd
       -0.0020225812 -0.009187847 0.08760134 -0.03343902
000100 fc 4b 1e bd fd c7 3d 3d 96 d6 1b bd 6f c3 16 3d
       -0.038646683 0.0463333 -0.038046442 0.036807474
000110 f0 b2 2e bd ab b1 af 3b 74 d1 b7 3d 78 f7 28 3b
       -0.042651117 0.005361756 0.08975497 0.0025782268
000120 af 2c da 3c 7c c1 52 3d 0f 9e 24 3d 46 15 aa 3c
       0.026632635 0.051454052 0.0401898 0.020762097
000130 6a 40 a9 bc 70 88 1d be eb 19 13 bd 87 fb 39 3d
       -0.020660598 -0.15384078 -0.03591339 0.04540589
000140 ad 17 58 3d 9c 19 c8 bd 99 c1 cc 3c 54 bc db bc
       0.052756954 -0.097705096 0.024994658 -0.0268232
000150 1a ba 0c 3c 6b 1d 67 3d 38 27 6c be 18 2f 85 bc
       0.008589292 0.05642454 -0.23061836 -0.016257808
000160 b0 64 03 bd 2f 26 51 3d c8 fb 0a 3d 9d 33 97 bc
       -0.032078445 0.051061805 0.033931524 -0.018457228
000170 33 f6 88 bc 0e 14 19 3d fc 84 f4 bc af 59 48 3d
       -0.01671896 0.03737264 -0.029848568 0.048913654
000180 6a 61 38 3d 8d 04 bb bb 00 12 ab 3d 0a 87 35 3d
       0.045014776 -0.0057073296 0.083530426 0.044318236
000190 c8 90 c4 bc f8 7b 6e 3c 49 40 0c be ca 17 a4 3c
       -0.023994818 0.014555924 -0.13696398 0.020030875
0001a0 74 59 86 bd 97 5e 21 be b9 a1 a8 bd 4d f6 01 3d
       -0.065600306 -0.1575874 -0.08233971 0.03172903
0001b0 42 9a 5a 3b 38 a9 f0 3c e7 76 00 be b4 b6 4d bd
       0.0033356105 0.029377565 -0.12545358 -0.050223067
0001c0 a7 e8 99 bd 96 4c 64 be 0e 91 8c bc 94 25 4f 3d
       -0.07515078 -0.2229484 -0.017159011 0.050572947
0001d0 68 89 61 bd 7d 2b fc bd 6b d8 80 3d d7 23 17 3d
       -0.05506268 -0.12312982 0.062912785 0.036899414
0001e0 1e 8a 20 bc ee 8c 62 3d 03 46 d4 3b b4 fe b5 3d
       -0.009798555 0.055310182 0.0064780726 0.088864714
0001f0 f3 1f 81 bd 3a 0d e9 bc 6c 12 d0 3d f4 6a 45 bc
       -0.06304922 -0.02844869 0.10159764 -0.012049425
000200 52 28 b8 bd 66 c9 96 bc cf d6 a7 bb 1f e2 16 bd
       -0.089920655 -0.018406581 -0.0051220427 -0.03683674
000210 f3 eb a4 bc 95 19 a3 bd 94 d3 58 3d 59 a7 24 be
       -0.02013204 -0.07963864 0.05293615 -0.16079463
000220 db 8d 73 bd 13 63 a5 bd dd 16 a5 3d f5 97 86 be
       -0.059461456 -0.080755375 0.080610014 -0.2628781
000230 54 60 da bd bd 20 8d 3c f3 95 fe bc 48 98 44 3d
       -0.106629044 0.017227525 -0.03107736 0.04799679
000240 9d 3d 21 be 04 42 8a 3d 0e 8d 57 3d b4 21 7f 3d
       -0.1574616 0.06750873 0.052624755 0.062288
000250 ec 64 d8 bd 1b af 25 bc 3d 18 27 bc ef 69 c6 bc
       -0.10566124 -0.010112549 -0.01019865 -0.024220435
000260 2c 89 be bc d7 9c 1f be 3c 46 7d 3d 60 f8 b0 3d
       -0.023258768 -0.15587173 0.06183456 0.08641124
000270 de 0a 2b bd d9 4e 6f bb 5e 0f d4 bc 24 27 be bd
       -0.04175841 -0.0036515503 -0.025886234 -0.09284809
000280 7c f9 a9 bd 42 c4 ff bb f4 6a 29 bd 4a 52 3f 3c
       -0.082995385 -0.007805378 -0.041361764 0.011677334
000290 30 6f 16 bd 17 c3 5d bc 19 8e 40 3c 1c 0c cf bc
       -0.03672713 -0.013535283 0.011752629 -0.025274329
0002a0 ba 0c f4 bd 2f b6 f3 3c 80 4e c0 bc 3b 81 00 bd
       -0.1191649 0.029749958 -0.023474932 -0.031373244
0002b0 86 b4 0d 3d 66 fc 96 3d 98 9f 32 bd bf 1c 39 bd
       0.03459599 0.0737236 -0.04360923 -0.04519343
0002c0 f5 00 b8 bd 36 a4 ae bd a9 7e 1d 3d 8b bb fd bc
       -0.089845575 -0.085274145 0.03845087 -0.030973217
0002d0 70 68 0e be ff 26 c1 bc 54 b1 16 be d4 86 7a 3d
       -0.13907027 -0.023578165 -0.14716083 0.06116374
0002e0 43 82 b0 bd 2a f5 60 ba 9a 50 10 bd b8 07 d3 bb
       -0.086185955 -0.0008581454 -0.035233118 -0.006440129
0002f0 0b 82 a2 bd 6f 0e 04 bd c5 8b ae bc 1c 55 79 bc
       -0.0793496 -0.032240327 -0.021306882 -0.015218046
000300 e2 52 52 bd db a9 b9 3a 79 8e ab 3c 5a 2c 8d bd
       -0.051348574 0.0014165001 0.02094196 -0.06893225
000310 92 97 09 3d bf 78 0d 3b 5f 44 65 bd 41 0d 7b 3c
       0.033591814 0.0021586863 -0.055973407 0.015322984
000320 01 0e e4 bc 1a 0b 39 bd 5c 2a 17 be f4 6d 06 be
       -0.027838709 -0.045176603 -0.14762253 -0.13127881
000330 d9 61 b6 bd 55 fa a7 3d d4 cd a9 3c 04 e6 e1 3d
       -0.08905382 0.08202044 0.02072803 0.110302
000340 d5 59 4c bd e5 ef 88 3c 45 85 a5 3d c9 09 9c bd
       -0.049890358 0.016715953 0.0808206 -0.07619054
000350 a3 45 df 3d eb e1 04 bd 48 9f a9 bc 48 f6 98 bd
       0.10901954 -0.032442015 -0.020705834 -0.074688494
000360 d0 57 0d 3d e5 7a bb bd ad 48 a3 bd c3 99 ca bd
       0.034507573 -0.091543 -0.07972846 -0.09892609
000370 df e5 0f 3d 95 a4 41 bd 18 03 2d bd 3e d0 51 3d
       0.03513133 -0.0472761 -0.04223928 0.051223986
000380 ec ae b2 bd 0a 47 56 bd a1 5d c0 3d 81 c5 c5 3c
       -0.0872477 -0.052313842 0.09392858 0.024142029
000390 c0 aa 64 bc cc 72 00 3c 93 87 c8 3d 77 8f 41 bd
       -0.013956726 0.00783987 0.09791484 -0.04725596
0003a0 a6 49 a9 3d 52 87 bd 3d 1d 71 83 bd d1 9c ad bc
       0.082660004 0.09254326 -0.06418059 -0.02119294
0003b0 00 6f 16 bd c2 c5 ae bc f4 d3 d5 3b 6a a1 f4 bd
       -0.03672695 -0.021334533 0.006525511 -0.1194485
0003c0 af 4d 0a be e4 56 9a 3c 25 b9 d2 bc e5 bc e7 bc
       -0.13506196 0.01884026 -0.02572305 -0.028288314
0003d0 37 07 5e bd 16 c6 47 3d 72 af d2 bd 3e 6d 19 be
       -0.0542061 0.048772894 -0.1028737 -0.14983079
0003e0 f6 6c ee 3d c7 f1 b8 bd 52 3d 17 be d6 c7 4c be
       0.116418764 -0.0903049 -0.14769486 -0.19998106
0003f0 5a c7 87 bd 0c cc 3e be de 47 2e bd 09 ce 95 3d
       -0.0662982 -0.18632525 -0.042549007 0.07314689

layers.2.bias f4 [256]
000000 46 30 cf 3c 9e a6 f5 3a a1 7e 85 3c 54 14 c5 3d
       0.025291573 0.0018741672 0.016295733 0.09623018
000010 00 d8 8c 3d e1 d0 a3 3c b3 7b 61 3c eb f5 fd 3d
       0.06877136 0.019997062 0.013762402 0.12400421
000020 e1 89 5b 3d 45 db 99 3d 0d b1 8c bb 09 83 1b 3d
       0.05359829 0.075125255 -0.004293567 0.03796676
000030 96 e3 24 3d d1 8b ab 3d e8 07 a6 3d 31 11 53 bb
       0.040256105 0.08376277 0.08106977 -0.0032206292
000040 7b 3a a8 3c 1f f7 07 3e 0b ae 05 bc 10 d8 8e bc
       0.020535698 0.13277863 -0.008159171 -0.017437011
000050 bf 22 94 bc c6 6b c4 3c 18 68 b6 3c d5 af 3c 3d
       -0.018082974 0.023977172 0.022266433 0.046066124
000060 78 91 21 bc fe 44 36 bb 81 70 76 bc aa 7f 38 3d
       -0.009861343 -0.0027812119 -0.015041471 0.045043625
000070 c6 95 23 3c a8 22 47 3d 61 04 d0 bc f5 22 7b bc
       0.009984439 0.048617035 -0.025392713 -0.015328159
000080 f6 1d d1 3d fc 6d 83 3b c8 05 2e 3d 85 7f 9e 3d
       0.10210793 0.004010914 0.042485982 0.07739166
000090 7a 9c ee bc bc 93 2c bd 89 a2 27 3d 1f ca 6b 3c
       -0.029127348 -0.042133078 0.04092649 0.014391451
0000a0 cd 3a a0 bc 0f af 70 3d 6a e4 c3 3d 04 b5 b6 3c
       -0.019559288 0.0587607 0.09565051 0.022303112
0000b0 18 a1 62 3c 41 91 a3 3d 8a 74 5c 3d fc 76 56 3d
       0.013832353 0.07986689 0.053822078 0.052359566
0000c0 74 b1 77 bd 67 25 d8 3d 43 e7 31 3d 4e a0 4d 3d
       -0.060471967 0.10554009 0.04343344 0.050201707
0000d0 ee 9f 7d bc 64 da 58 3d 40 40 74 3b 31 cd 5c bb
       -0.015480025 0.05294265 0.0037269741 -0.003369164
0000e0 98 87 60 bc 89 60 6e 3c 48 aa bb 3d 26 b9 00 bd
       -0.013704203 0.014549383 0.09163338 -0.03142657
0000f0 fa fb 88 3d 02 c6 9f 3d 5a e0 d9 bc b3 8f 98 bc
       0.06688686 0.07801439 -0.026596237 -0.018623209
000100 0e e0 d3 bb a2 58 a3 3d fd 44 9e 3c 69 4a 31 bd
       -0.0064659184 0.0797589 0.019320006 -0.043283854
000110 7a eb c4 bb 81 5d c9 bc a9 3c 7c 3d 13 d5 ac 3c
       -0.0060095163 -0.024580719 0.061581288 0.021097695
000120 37 54 12 bd 97 81 00 3d 76 b9 0d 3d 82 09 4c 3d
       -0.035724845 0.031373587 0.034600697 0.049813755
000130 06 a7 3f 3e 1f 1d 2f 3e b6 c3 17 b9 b4 40 ea bc
       0.18716058 0.17100953 -0.0001447339 -0.028595306
000140 d7 60 4a bc c9 3e 98 3c c1 3a d7 bc 64 e2 4d 3d
       -0.01235219 0.018584626 -0.026273133 0.05026473
000150 8d d7 5a 3d cb c2 94 3d 79 b4 b8 3d 02 b9 f3 bc
       0.05342822 0.07263716 0.090187974 -0.029751305
000160 17 61 42 3d 00 b6 44 3d 6a d6 21 3d fd 13 c4 bc
       0.047455873 0.04802513 0.03951112 -0.023935312
000170 f3 9e 09 bb e8 66 c4 3d 5b de 6b bc de 8d 56 bc
       -0.0020999282 0.0958994 -0.014396275 -0.013095347
000180 4e ba 38 3c ac 1c 15 3c 14 4d c3 3d e4 99 d5 3d
       0.011274887 0.009101074 0.09536186 0.10429743
000190 d8 97 7d b8 b8 f9 ab 3e 77 70 0c 3d 36 02 19 3d
       -6.0461316e-05 0.33588958 0.034286942 0.037355624
0001a0 cf 0a d1 3c 4a 1a 5c 3a 76 90 5d bc 66 0e 49 bc
       0.02551785 0.00083962514 -0.013523212 -0.012271499
0001b0 63 e7 48 3d 50 9b 0d 3c 28 60 f3 38 77 4c b0 bc
       0.049048793 0.008642986 0.000116050534 -0.021520836
0001c0 50 b1 56 3d f1 ae 00 3d 1d 75 08 3b 20 bf 0a 3c
       0.052415192 0.031416837 0.0020821758 0.008468419
0001d0 f6 ec 4f 3d 2d 60 07 3d 41 9e 3d 3b b1 39 ab 3d
       0.050763093 0.033050705 0.0028933438 0.08360613
0001e0 d9 c3 4c 3d a8 a1 81 3d 0b bc a8 3d 9e 70 58 bd
       0.049991462 0.063296616 0.08238991 -0.052841775
0001f0 c3 81 20 3c 19 69 bf ba 60 b2 55 3d d2 e5 ad 3d
       0.009796563 -0.0014603465 0.052172065 0.084911
000200 6e c2 95 3d c7 4e 8c 3d 04 e2 57 3d 22 5f 8e 3d
       0.07312475 0.06850963 0.05270578 0.06951739
000210 f6 f6 26 bb cd 20 02 3d f8 23 c5 bb a9 b1 c6 bc
       -0.002547679 0.031769563 -0.0060162507 -0.024254637
000220 6b c2 33 bd 00 3c 48 bd b5 ce 31 3a b1 88 b2 bc
       -0.043886583 -0.048885345 0.0006782816 -0.021793695
000230 d3 bb 42 3d a8 5b 22 3c aa a6 cd 3c 88 5c 21 3d
       0.047542404 0.009909548 0.025103886 0.039394885
000240 83 50 28 3d ec 44 7e 3d c8 fb 1f 3d 77 d6 4d 3d
       0.041092407 0.062077448 0.039058477 0.050253358
000250 29 35 85 3d 88 05 9e 3d 2b 8d b4 3c 70 fe 2c bb
       0.0650428 0.07715899 0.02203997 -0.0026396774
000260 b4 0e 76 38 f2 ae 97 bb 96 a9 9c 3d 0a c4 82 3d
       5.8664664e-05 -0.0046290094 0.076495335 0.06385048
000270 31 7c 11 bd ea 8c 5c 3d 5b 69 a0 3c 80 f4 7e bd
       -0.03551883 0.053845324 0.019581487 -0.062244892
000280 c8 9d 62 bc fe a8 dd 3c fa c1 e8 bc 2b dc 58 bd
       -0.013831563 0.02705812 -0.028412808 -0.052944344
000290 77 91 a8 3e e2 13 c7 3d 17 33 80 bd e3 0f de b9
       0.3292348 0.09720589 -0.062597446 -0.00042354976
0002a0 32 96 fb 3c 27 86 96 3d d4 2d 08 bc 57 d2 3d 3c
       0.030711267 0.07349806 -0.0083117075 0.011585793
0002b0 a5 e6 69 3c 48 48 c6 3c 54 9a 21 3d 7c d2 a5 bd
       0.014276181 0.024204388 0.03945382 -0.08096787
0002c0 48 16 18 3d e3 87 a3 3d ba 70 40 bc 6e 55 a5 3d
       0.037130624 0.07984903 -0.011745626 0.08072935
0002d0 22 83 8a 3b 82 68 19 bd 3b c8 2f bb e8 16 20 bd
       0.004227058 -0.037453182 -0.0026822228 -0.039084345
0002e0 ae fd 53 3d d4 4f 6b 3d 6a fb 84 3d 13 ff ba 3d
       0.0517556 0.057449177 0.06493266 0.09130683
0002f0 46 0c 9e 3e 0a 58 36 3e a0 43 86 3d d3 1d a0 3c
       0.3086874 0.17807022 0.06555867 0.019545471
000300 b0 d2 97 3c 78 8d 87 3d 67 d5 36 3c ce 6c 15 3d
       0.01853308 0.0661878 0.0111592775 0.036480717
000310 c4 7d 05 bc e6 3c 5f bd b4 a4 20 3d a0 ea 58 bd
       -0.008147661 -0.054501437 0.039219573 -0.05295813
000320 3a 86 90 bc 1a c0 51 3c 3a c4 36 3d 2a ed 8a 3c
       -0.01764213 0.012802148 0.04462073 0.016958792
000330 96 a7 41 3d ad 90 76 bb e2 be 30 3d 44 cf 88 3d
       0.047278963 -0.0037622855 0.04315079 0.06680158
000340 1c 50 88 bc e8 4f 6b 3d 22 94 d5 3d af d3 9b 3d
       -0.016639762 0.05744925 0.10428645 0.07608735
000350 0a 13 98 3d a4 5e ae 3c 8e 82 63 3d b6 1c 26 bd
       0.074255064 0.021285363 0.05554443 -0.040554725
000360 62 64 0c 3d 39 da a2 3d 93 75 83 3d 91 24 cc 3b
       0.03427542 0.07951779 0.0641891 0.006229945
000370 2f 06 3e 3d a6 1d 85 3d 47 79 0b 3c c0 0c 40 3e
       0.046392616 0.064997956 0.0085128015 0.18754864
000380 68 59 52 bc 50 11 e8 bb 2d 01 a2 3d f1 2e dd 3b
       -0.012838699 -0.007082142 0.079103805 0.0067499806
000390 1f b9 fc bb 72 84 21 3d 21 d4 8d 3a c0 3d c3 3d
       -0.007712498 0.03943295 0.0010820666 0.09533262
0003a0 ea 98 a2 3d a1 a4 c9 ba de a4 57 3c 7e 91 54 3d
       0.07939322 -0.0015384146 0.013161866 0.051896565
0003b0 43 67 ec 3d 49 c3 9b 3c 7e 18 a3 3c 2b 14 c7 3c
       0.11543133 0.019014018 0.01990914 0.024301609
0003c0 6f df 81 3d 18 56 b7 3c d4 1d 9a 3b 3b 3d 0d 3d
       0.06341445 0.02237992 0.004703263 0.034482222
0003d0 37 d0 a1 3d ae 9d 27 3d 06 70 e5 bc df a3 e5 bc
       0.07901042 0.04092186 -0.028007519 -0.028032241
0003e0 f2 11 a5 bc e7 7e 82 3d be a6 18 3e 88 fd f1 bc
       -0.020150159 0.06371861 0.14907357 -0.029539838
0003f0 da 5b 57 3d bf 13 f9 3c a9 60 82 3d 09 10 dd bc
       0.05257783 0.030404923 0.06366093 -0.026985185

log_std_layer.weight f4 [2, 256]
000000 0d 6a f1 3b b8 b3 87 bb 4a 1e 65 3c 11 7a 04 3c
       0.0073673786 -0.004141297 0.013984272 0.0080857435
000010 7c 8a e0 39 d3 67 85 3c b1 89 76 bb 65 c8 a0 bb
       0.00042827788 0.016284859 -0.0037618692 -0.0049067014
000020 c2 57 55 3c 01 98 b3 bb 69 76 93 3c b2 69 e2 3a
       0.013021411 -0.0054807668 0.018000798 0.0017273931
000030 b1 6c e7 3a 5a bc 46 3c 59 f7 3a 3c 81 dc cd 3a
       0.0017656294 0.012129867 0.011411511 0.0015705974
000040 dd 41 5c 3c 8f 99 a6 3c a2 09 cd 3b e3 16 d7 3b
       0.013443437 0.020336894 0.006257252 0.0065640076
000050 83 79 96 3c 67 1b 18 3b 7f a8 ce 3c 0b b7 99 3b
       0.018368488 0.0023209692 0.02522683 0.00469101
000060 b6 ae 13 3d 58 a8 4f bc d5 98 e4 3c 1d 2b cb 3c
       0.03605529 -0.012674414 0.027904907 0.024800831
000070 65 7b ff bb 20 85 0a 3d c9 23 c2 3b 75 d6 b9 3c
       -0.007796692 0.033818364 0.005924676 0.022685269
000080 5e 65 67 3c 36 17 bc bb d4 bf 3f bb 6f 27 20 ba
       0.014123289 -0.0057400716 -0.0029258626 -0.00061093917
000090 d3 d0 67 3c 3a 96 b9 bc 03 88 58 3b 11 ec 28 3d
       0.014148909 -0.022654641 0.0033040054 0.041240755
0000a0 d1 3a d9 bb 44 ee 6a bc 7b 7d d6 3b d2 9f 58 3c
       -0.006629326 -0.0143390335 0.00654572 0.013221698
0000b0 d6 a5 4c bc 84 af c2 3c 7d 5c c8 3b a4 77 53 ba
       -0.01249071 0.023765333 0.006114541 -0.0008066839
0000c0 07 8e 4e 3c 5d f5 2c 3d 80 f0 15 bb 5f 66 2c bc
       0.012607104 0.042226184 -0.0022878945 -0.010522454
0000d0 ea 8d 1d bc 2e b0 3a bb 47 00 66 3c 95 f0 07 bc
       -0.0096163545 -0.002848636 0.014038152 -0.008297105
0000e0 f2 d3 e5 3b c4 2b 0e 3c 6c a1 70 3c 5a 97 e0 3c
       0.0070137912 0.008677427 0.0146869235 0.02741592
0000f0 04 bb 1f bb 87 d8 9e bb 99 c5 ca 3b 37 c6 c4 ba
       -0.0024372945 -0.0048475894 0.0061881063 -0.0015012686
000100 84 40 9a bb 3e 3b e1 3c 87 8a 23 bd 7e b2 fd 3b
       -0.004707398 0.02749407 -0.03992703 0.007742225
000110 38 10 e9 3c 4a 39 9d 3a 5b eb d6 3c fe ed 9a 3b
       0.028450117 0.0011995223 0.026235273 0.004728078
000120 b1 a6 d4 bc 3a 3e 88 3a 9e 42 f0 3b c2 16 2c 3a
       -0.02595839 0.0010394522 0.00733216 0.00065646705
000130 01 1b 83 3c ca 5e 71 bb 63 3b ef 3b 22 b8 8b 3c
       0.016004087 -0.003683018 0.0073007806 0.017055575
000140 3d 98 1d 3c ca 38 1c bd 21 4b 60 3b 90 4b c6 3a
       0.009618816 -0.038140096 0.0034224468 0.001512872
000150 01 67 cc 3c 31 94 a4 3c 23 24 07 3c 65 e3 56 3c
       0.02495146 0.020090194 0.008248362 0.0131157385
000160 5c 07 2e bb 16 01 63 bd 28 2d 06 3c a0 7e 13 39
       -0.002655468 -0.055420958 0.008189477 0.00014066184
000170 0b e0 08 3c 70 ea c3 3c 41 da 81 3b 20 f1 0f bc
       0.008354197 0.0239155 0.0039627855 -0.008785516
000180 f6 06 3c bc ac 78 90 3c 82 c3 79 3d 47 4f d9 3c
       -0.011476269 0.017635666 0.060977466 0.02652706
000190 a7 07 7d 3c b5 d8 eb 3d a0 9b 40 3c 4c fa 4e 3b
       0.015443719 0.11515943 0.011755854 0.0031582294
0001a0 67 82 d9 3c 6d 29 55 bd bf bb b0 ba 67 33 5c bc
       0.026551438 -0.05204146 -0.0013483687 -0.01343999
0001b0 09 30 3b 3c ae 53 5a 3d 18 6c e1 3c 8a 8f ca bb
       0.011425027 0.05330246 0.027517363 -0.006181662
0001c0 2f 84 f0 bb a3 bd de bc 97 6a 99 3c 40 e9 42 bc
       -0.0073399763 -0.027190035 0.018727584 -0.011896431
0001d0 de ac 22 bb 52 10 91 ba 17 b0 31 3c 6b 3b 81 3c
       -0.0024822275 -0.0011067486 0.010845206 0.015775403
0001e0 c4 b4 2d bc 3e e2 65 3d 3e 76 f4 b8 98 60 2b 3b
       -0.01060218 0.056123964 -0.00011656851 0.0026150104
0001f0 d0 d8 94 bc 64 0d 95 bc 5d 86 30 3d e1 d8 ed bb
       -0.01816979 -0.018194862 0.04309689 -0.00725852
000200 df 58 2d bb 96 a9 39 bd f2 19 7c 3c 13 04 cb 3a
       -0.0026450676 -0.045327745 0.015387045 0.0015488885
000210 f1 24 ea 3b 00 54 31 3c 77 0e b5 3c 9e c2 37 bc
       0.007145517 0.01082325 0.022101624 -0.011215834
000220 91 22 82 bc fa 0f ca 3c 97 e8 97 3b 10 1a d4 bb
       -0.015885623 0.024665821 0.004635881 -0.0064728335
000230 89 03 dd bb 80 ed 8e 3c b0 c8 48 3c ae 07 1a ba
       -0.006744806 0.017447233 0.012254879 -0.0005875778
000240 ac 3b 9e bc 42 f1 42 bb ef 7c f2 bb 10 4a bb 39
       -0.019315563 -0.0029745852 -0.007400147 0.000357226
000250 bb a3 8b 3b 86 0d c5 3c 7a 85 dc 3b 7f 99 70 3b
       0.0042614616 0.0240543 0.006729779 0.0036712585
000260 a9 a2 e9 3a f7 a0 ca bb ac 67 f4 3b 26 1d 70 3b
       0.0017824966 -0.0061837393 0.0074586477 0.0036638468
000270 97 2b e9 39 7b 13 29 3b 86 68 9a 3c bd ff 5a 3b
       0.000444737 0.0025798965 0.018848669 0.0033416592
000280 ed 56 0f 3c fd 36 37 3c c6 c1 ec bb c7 da b6 3c
       0.008748752 0.011182544 -0.007225248 0.022321118
000290 ef 33 79 3d 78 61 51 3c 56 16 10 bc fc 9f b6 3b
       0.060840543 0.012779586 -0.008794388 0.005573271
0002a0 a1 84 33 3b d0 8c 15 bc b8 e6 91 bc 1c aa e3 3c
       0.0027392285 -0.009127811 -0.01781021 0.027791075
0002b0 f9 d9 0a 3d f0 bc 2d 3b 24 de 90 3c df 08 2a 3d
       0.03389928 0.002651032 0.01768405 0.041512366
0002c0 1e cc 52 3c 85 17 03 3c bd 3b 57 bc f2 0c 46 39
       0.012866048 0.008001213 -0.013136801 0.00018887574
0002d0 09 22 4a 3b 4d d9 01 bc fa d8 2b 3c 34 05 b6 bc
       0.003084304 -0.007925344 0.010488743 -0.022219278
0002e0 29 f3 e1 3c ef 16 11 39 0b 98 81 3a c2 78 8d bc
       0.027581768 0.00013836821 0.0009887231 -0.017269496
0002f0 80 59 cd 3c e7 20 1c 3c 3b 0c 52 bc 2b 06 d5 38
       0.025067091 0.009529329 -0.012820299 0.0001015778
000300 77 9c 9c 3c 36 bf 86 ba ec 6e ff ba c3 3b 83 3c
       0.019117577 -0.0010280374 -0.0019488013 0.016019708
000310 51 8b 31 3c 85 a7 59 3c 8f d9 31 3c 31 a8 44 3d
       0.010836438 0.013284569 0.010855093 0.048011962
000320 75 76 8b 3c cc 7a 45 3c 49 11 95 3b 5d 47 fd 3c
       0.017024258 0.012053203 0.0045491797 0.030917818
000330 ba c8 db 3b 82 5f 3f 3b ac a0 bc bc ea 91 bb 3c
       0.006707278 0.0029201214 -0.023025833 0.022896726
000340 29 57 50 3c ee 57 02 bb 2b d8 30 3d ce 7c 7b bb
       0.012716093 -0.0019888836 0.043174904 -0.003837395
000350 e6 0e 50 3c e0 ed 04 3c ee 7a 63 3c 69 de 09 3c
       0.012698865 0.008113354 0.013884289 0.008414843
000360 83 13 14 3d b4 7c d4 3c ec 9b 8d 3c 4a c5 1d bc
       0.03615142 0.02593837 0.017286263 -0.009629557
000370 c1 f6 b9 3c 85 2d 3a bb 7a 54 a9 3c d9 d8 2c 3c
       0.02270067 -0.002840848 0.020670164 0.010549747
000380 e5 2f cc bb d0 73 a1 3c 40 49 96 3c d6 2a 55 bc
       -0.0062312954 0.019708544 0.018345475 -0.013010701
000390 87 95 e9 3b 2b 90 a2 3d 52 61 5f 3c f6 da 28 3c
       0.0071284208 0.07937654 0.013634043 0.010306111
0003a0 b0 c7 ea 3b ca 24 17 3c 86 29 86 bc ab 61 44 3c
       0.007164918 0.00922508 -0.016377222 0.0119861765
0003b0 86 3f d7 3c f9 42 9c 3c f7 65 12 3b 20 a1 81 bc
       0.026275408 0.019074904 0.0022338608 -0.0158239
0003c0 84 66 25 bc 64 38 ac 3c e3 3c 13 3c 40 84 cb bc
       -0.010095242 0.021022983 0.0089866845 -0.024843335
0003d0 55 95 c4 3c 91 83 94 bb f3 9d 15 3b 17 b0 17 bd
       0.023996988 -0.0045322855 0.002282974 -0.037033167
0003e0 26 a6 c8 3b 26 9f a6 ba 2f 8f 0e 3c 3a d8 ed 3c
       0.006123322 -0.0012712225 0.00870113 0.029033769
0003f0 d7 cc 07 3c ee 82 9d 3c 7a e4 88 ba 6b 30 04 3a
       0.008288584 0.019227471 -0.0010444068 0.0005042615

log_std_layer.bias f4 [2]
000000 c5 47 bc 3d 70 ce aa 3d
       0.091933765 0.08340156

mu_layer.weight f4 [2, 256]
000000 d5 bf 1f ba 07 f0 15 be 4e 24 ad 3d dd 6f 9a bc
       -0.0006093954 -0.14642344 0.0845419 -0.018852169
000010 fc 01 92 bc 6b c3 13 3e 1b ec 18 3e 66 0c 72 bd
       -0.017823212 0.14430015 0.14933817 -0.059093855
000020 ac 18 0a be 68 c7 8d bd 57 31 77 3d 56 0b 2b be
       -0.13485974 -0.06922799 0.06034979 -0.16703543
000030 17 7f f5 bd ba f2 19 bc a7 03 4d bc 41 9c 96 3d
       -0.11987131 -0.009396249 -0.012513078 0.07354022
000040 f2 8e a4 bd a6 13 dc 3d d8 b3 0f 3d 62 31 8c 3d
       -0.08035077 0.10745935 0.03508362 0.068453565
000050 c6 65 3c 3e f9 86 be bd 79 1b 3c be bf c0 12 3f
       0.18398198 -0.09303088 -0.18369855 0.5732536
000060 e0 ec 92 3e b4 87 68 3d b5 a0 98 3e a0 c2 71 3e
       0.28696346 0.05677004 0.2981011 0.236094
000070 68 87 a9 3c d3 43 e8 3e 4f a8 51 3a 6a fe 4b 3e
       0.02069445 0.45364246 0.0007997797 0.1992127
000080 b5 a9 2a bd e5 58 a0 3e 1c e9 00 be bc 33 91 3c
       -0.04166575 0.3131782 -0.12588924 0.017724864
000090 9f e0 7b 3e 81 ca 41 bf be c4 f8 3d bd 1f d6 bc
       0.24597405 -0.7569962 0.121469006 -0.02613818
0000a0 f4 a7 06 be 5c 95 96 bd f0 37 82 3d a6 13 ea 3d
       -0.13150007 -0.07352707 0.063583255 0.11429529
0000b0 19 09 d9 3e 85 ab 66 bc f5 7f 03 bd 11 a3 88 be
       0.42389753 -0.014078979 -0.03210445 -0.2668691
0000c0 f2 76 99 3e 5f 61 c3 bc ee a9 a9 bd 77 2f 21 bd
       0.2997356 -0.023850141 -0.08284365 -0.039351907
0000d0 7f d7 13 3d 58 08 49 be c1 87 cd 3e 40 3d da 3c
       0.036094185 -0.19632089 0.40142635 0.026640534
0000e0 98 cf 34 bf ff 8c ad be ff cc 72 bc d3 91 1c 3e
       -0.7062926 -0.33896634 -0.014819383 0.15290003
0000f0 d8 da 96 3e 51 0c d2 3d f5 b1 24 be 6b 02 0e be
       0.2946384 0.102562554 -0.1608351 -0.1386811
000100 ef 49 0b bd f7 5b e1 bb 67 8d 4d bf 50 d0 47 3e
       -0.034006055 -0.006877418 -0.8029389 0.19513059
000110 32 3e ab be 25 16 67 bc 83 8a b0 3d 65 3d b4 be
       -0.3344589 -0.014104401 0.08620169 -0.3520309
000120 dd ce 10 3f cd 58 93 bc 39 d4 a0 bc 94 1f 04 be
       0.5656565 -0.01798668 -0.019632446 -0.12902671
000130 eb a5 99 bd 92 74 20 3b 7a 1c ad 3c 15 7c d6 3d
       -0.075023495 0.0024483544 0.021131743 0.104728855
000140 e0 8a 75 3e e9 c6 87 be c8 6f bf bd 76 b4 39 bb
       0.23978758 -0.26518944 -0.093474925 -0.0028336323
000150 2a 10 8e 3e 6a 79 ee bc ed 00 8c be 91 09 38 3e
       0.27746707 -0.02911063 -0.27344456 0.179724
000160 7b 52 12 bf c3 0e d4 3e ad ff b8 bc 8b 66 90 be
       -0.57157105 0.41417512 -0.022582853 -0.28203234
000170 79 89 34 3e fb 99 09 bc bf 9b 8a 3d dd 72 4a bd
       0.17630567 -0.008398528 0.067679875 -0.04942595
000180 e3 3a 35 3f 61 6d a9 3e 3d b5 0c 3f 42 4e 13 3c
       0.7079298 0.33091262 0.5496405 0.008990826
000190 26 33 30 bd d0 16 eb bc 5f cb ce 3e 3e 4a a7 bc
       -0.04301753 -0.028697401 0.40389535 -0.020421144
0001a0 c6 e3 c3 be c2 7b 2d 3f 23 75 60 be 0e c8 16 be
       -0.38259715 0.67766964 -0.21919684 -0.14724752
0001b0 71 b1 28 3a d1 a0 bc 3e 1e f7 6c bd c5 fc 7e be
       0.0006435132 0.36841443 -0.057852857 -0.24901111
0001c0 c1 dd f6 bd 73 88 76 be 69 78 9b 3e 6e 27 c1 bd
       -0.12054015 -0.24075489 0.30365303 -0.09431349
0001d0 c9 65 31 3e c9 58 27 bc 6c 89 cd bc 9d f5 6d 3e
       0.17323984 -0.010214039 -0.025089942 0.23238225
0001e0 65 e4 be 3a 44 fb 54 3f 87 91 72 3b c8 f6 9b 3d
       0.0014563916 0.831959 0.003701301 0.07615429
0001f0 ce 08 df be c4 a9 bd bd b0 af fa 3e 6f ba b2 bd
       -0.43561405 -0.09260896 0.48962164 -0.08726966
000200 ea af 54 bd 86 91 85 be db 3f da 3d 4c d0 4d 3e
       -0.051925577 -0.26087588 0.10656711 0.2009899
000210 e0 71 2a bc 10 84 4b 3c b2 ab dd bd a1 e2 1a bd
       -0.0104031265 0.012421623 -0.10823764 -0.037813786
000220 ba 71 7a bd 26 9f 1c 3f 86 1f 05 be dd 5e 11 be
       -0.061143614 0.6118034 -0.13000306 -0.14196344
000230 ea e3 a5 3d b4 cf dc 3d d4 97 42 3f b6 09 64 3e
       0.08100112 0.10781804 0.7601292 0.2226933
000240 8d 14 88 be 2d 52 4f 3f 79 e4 c6 3e 64 e8 b4 bd
       -0.2657818 0.80984765 0.38846186 -0.088333875
000250 bc 39 7e be 24 6b 5f be b1 f9 45 bd 53 ec 4a be
       -0.24826711 -0.21818215 -0.048333827 -0.19816713
000260 3f de 23 be 05 12 ed 3d 05 dd 2d 3c 3e 57 0d bc
       -0.16002749 0.115757026 0.010611777 -0.008626757
000270 a7 63 b0 3d bc 7a c7 bc 66 e0 35 3e ba c7 cd 3d
       0.08612757 -0.024350516 0.17761382 0.100478604
000280 d5 23 8d bc 55 a4 2d 3e 40 68 04 bd 32 2e c5 3d
       -0.017229 0.16957219 -0.032325983 0.09627952
000290 cd 0a 0c bc 30 80 48 bd d0 5f 16 be 5f e6 2f bc
       -0.008547497 -0.048950374 -0.14684987 -0.010736077
0002a0 c4 58 85 bd f0 91 a1 bc 40 20 7c bd f6 ca 6f 3e
       -0.06511071 -0.019722909 -0.061554193 0.23417267
0002b0 fb 3e 91 be b6 ab 99 bd af 21 85 3e 1c 02 9f be
       -0.28368363 -0.075034544 0.2600226 -0.31056297
0002c0 c1 20 5f 3e 12 a7 cc 3c 88 99 fc bd fa d8 1b 3d
       0.21789838 0.02498201 -0.12333971 0.03804872
0002d0 13 57 52 3c 44 e0 92 3e 69 64 8f bc aa 4a 36 bf
       0.012838143 0.28686726 -0.017503934 -0.7120768
0002e0 2f f7 84 bc 5e 12 9b 3d e5 a7 55 3d 5f c0 aa bd
       -0.016231148 0.07571863 0.05216207 -0.08337473
0002f0 da 74 8e bb e6 db 08 3c ca 36 e3 bd 14 7b 13 3d
       -0.004347426 0.008353209 -0.110944346 0.03600605
000300 2e 79 a5 3e 22 2a 8c 3d 84 47 1a bd 36 12 81 3e
       0.32319015 0.06843974 -0.03766586 0.25209206
000310 cc fb a3 bc 4a 22 20 be 36 da 45 bc ad 0e 49 3f
       -0.020017527 -0.1563808 -0.012075951 0.7853802
000320 26 e7 31 3e cc ad 72 3d 14 80 2b be c0 f1 1d bd
       0.17373332 0.059247777 -0.16748077 -0.03856063
000330 2e fa 21 be e7 00 dc bd 98 6e 03 be b1 47 46 bd
       -0.15818092 -0.107423596 -0.12835157 -0.048408214
000340 a6 c1 60 3e 55 e5 2c 3e c5 e0 4d 3e b9 2c 2b be
       0.21948871 0.16884358 0.20105274 -0.16716279
000350 b5 f4 a7 bd a6 82 81 3d 6d d1 6b bb 3f 31 53 3e
       -0.08200971 0.06323747 -0.0035982982 0.20624255
000360 19 2c ba 3c e0 80 60 ba f6 7e 73 bd 25 d1 03 be
       0.022726106 -0.0008564126 -0.05944725 -0.12872751
000370 f1 ca 03 3e d6 41 49 bd 76 bb 27 3e e6 b5 14 bd
       0.12870385 -0.04913505 0.16380104 -0.036306284
000380 ca 75 a2 3c 90 6e ba 3d 46 58 7f 3e 91 c5 b6 3e
       0.019831557 0.091031194 0.24936017 0.35697606
000390 56 f3 1b be ab 2e 54 bf 14 2c 1a be 15 3b f5 bd
       -0.15229544 -0.8288371 -0.15055877 -0.1197416
0003a0 08 ec 40 3d ba e8 93 bd 2b 3e 00 be 8d ff 8d bd
       0.047100097 -0.072221234 -0.12523715 -0.06933508
0003b0 58 da 62 be 31 a9 64 3e 92 ee 7e be 97 03 c4 bd
       -0.22153604 0.22330166 -0.24895695 -0.09570997
0003c0 f7 db 53 3c cb 6c f1 3d 4d b9 ff 3d 07 1a f0 bd
       0.012930862 0.11788329 0.12486515 -0.11723714
0003d0 5e e3 db bd af b7 98 3e 57 cf ba bd 1d bf 8d 3e
       -0.10736726 0.2982764 -0.09121578 0.2768487
0003e0 fe 28 5c be e6 c3 89 bd 74 43 01 bd f6 56 84 3e
       -0.21500012 -0.06726818 -0.03155847 0.25847596
0003f0 30 b3 cd bd b2 e5 93 3d ad a8 ba bd eb 7c 78 be
       -0.10043943 0.07221545 -0.091142036 -0.24266402

mu_layer.bias f4 [2]
000000 75 b5 1c bc 1b 12 35 bd
       -0.009564747 -0.04420672
