plugins/MultiAgentCRTools/weights/qf.pt (torch, 295190 bytes, 6 tensors)

layers.0.weight f4 [256, 26]
-0.039076865 -0.58254933 -0.069794506 0.80098313 -0.033732116 -0.044352785 -1.1736431 -0.026925173
-0.019624641 0.04426494 0.0050351294 0.05987964 0.099595174 -0.03200244 -0.0627381 -0.12573275
0.17082094 0.14524153 0.009477396 0.07782958 0.08928564 0.25438276 0.014778639 0.107745424
0.48007873 -0.2331872 -0.49626726 0.5302246 -0.015714211 -0.216223 -0.059503574 -0.11521505
-0.49111736 -0.04286773 0.31923378 0.030569825 -0.03452352 -0.06772801 -0.042427182 -0.19482484
0.35696092 -0.022800982 0.008979521 0.0061792424 -0.034758516 -0.1970346 0.081127346 0.0544597
-0.2811829 0.013739387 0.13709378 -0.099765494 -0.50239086 -0.0686253 0.08918794 -0.023799052
-0.15803999 -0.034950737 -0.044748735 0.045193307 -0.017575733 -0.012373917 0.18742867 0.006625659
0.07395346 -0.114098035 -0.0022418532 -0.39479223 -0.13718326 -0.1335097 -0.40587842 0.28800982
-0.28422377 0.10496483 -0.6436323 0.08644144 -0.044230115 0.043592587 -0.40425128 0.7740109
-0.01766158 0.26460782 -0.11084491 -0.028210118 -0.20013775 -0.0019415021 0.10608461 0.104983315
-0.0032264495 0.021969864 0.03830788 0.1506049 -0.05426976 -0.08342594 -0.034676544 0.12474877
0.11828354 -0.20024964 -0.15611729 -0.20544703 0.26548702 0.0042410465 0.7908831 -0.063016534
-0.0064203553 -0.3100475 0.06680675 -0.116404176 -0.27744544 -0.03968255 -0.12810273 -0.15140499
-0.2121837 -0.03600601 -0.09183987 -0.0008300671 -0.17318986 -0.06790861 -0.1495614 0.26783752
-0.03049617 0.08091047 -0.14170417 0.026687842 -0.12705646 -0.15478165 -0.08662309 -0.5316185
-0.031088548 0.045847535 -0.89781034 0.10190272 0.018197859 -0.031407587 0.008913058 0.095848635
-0.2799437 0.007605253 0.31796777 -0.077273116 0.12192392 -0.051794197 -0.17828473 -0.21146244
-0.17820188 -0.18715936 -0.34291995 -0.16955264 -0.074498534 -0.1509261 -0.16039275 -0.07822713
-0.22737853 0.20945853 -0.19492303 -0.012847573 -0.3444328 -0.24737582 0.004229236 0.9979677
-0.04720589 -0.067132 0.23096815 0.010469623 0.0040830513 0.13235329 -0.029206233 -0.012891857
0.041194554 -0.043765523 -0.014162229 0.013676065 0.06036659 0.05555916 0.10500672 -0.01096893
-0.053615738 0.37364554 0.053262748 0.044546846 -0.0797061 -0.028798068 0.18270592 -0.30987293
0.027672311 0.14882553 0.5247827 0.20173648 -0.11133555 -0.36926052 -0.18473116 -0.023979539
0.15156566 0.016310744 0.030410914 -0.04629157 -0.20689316 0.0392853 -0.0067846295 0.22224966
0.12766954 0.05955962 0.11065478 0.23996586 -0.00809091 -0.21257392 -0.082531035 0.01359891
0.26962999 0.4294511 0.04576216 1.0752997 -0.4107051 -0.05541863 -0.973747 0.0719584
0.09723055 -0.010654673 -0.0047316006 -0.0002694126 -0.4871651 0.017821703 -0.014102971 0.5270268
0.10653157 -0.015155004 0.40680903 0.31413814 0.2984562 0.2167299 0.22757703 -0.50906223
0.08565373 0.035730004 -0.8990374 -0.013895791 0.012062266 0.31305736 -0.08995678 -0.052362815
-0.023574203 0.15666248 -0.027540976 0.16412018 -0.00892356 0.023590917 -0.10153298 -0.008682296
0.10274171 -0.056137927 -0.0003850858 -0.1475633 -0.029303491 0.0075065875 -0.15394793 0.46509483
00000000: 100f 20bd f421 15bf 6cf0 8ebd 3b0d 4d3f
00000010: b02a 0abd 44ab 35bd f039 96bf 2e92 dcbc
00000020: dbc3 a0bc 274f 353d bafd a43b 5a44 753d
00000030: 8ef8 cb3d fe14 03bd d57c 80bd 16c0 00be
00000040: afeb 2e3e 32ba 143e 1447 1b3c 1d65 9f3d
00000050: 64db b63d 753e 823e 1b22 723c a2a9 dc3d
00000060: e1cc f53e a0c8 6ebe be16 febe cdbc 073f
00000070: 17bb 80bc 9069 5dbe 05ba 73bd def5 ebbd
00000080: bc73 fbbe 1396 2fbd 9c72 a33e 926d fa3c
00000090: 8968 0dbd fcb4 8abd 20c8 2dbd 2a80 47be
000000a0: 95c3 b63e 20c9 babc d71e 133c 3e7b ca3b
000000b0: f25e 0ebd 70c3 49be 1826 a63d 2211 5f3d
000000c0: 34f7 8fbe 2a1b 613c 5062 0c3e da51 ccbd
000000d0: b09c 00bf 6c8b 8cbd 2ba8 b63d 3bf6 c2bc
000000e0: 3cd5 21be 8128 0fbd 734a 37bd 9e1c 393d
000000f0: fcfa 8fbc f8bb 4abc 4ded 3f3e 0e1c d93b
00000100: e974 973d 3bac e9bd 0eec 12bb 3522 cabe
00000110: c579 0cbe c4b6 08be 4ccf cfbe 0676 933e
00000120: c785 91be cdf7 d63d 16c5 24bf 3608 b13d
00000130: a32a 35bd 248e 323d 06fa cebe 9425 463f
00000140: 05af 90bc ad7a 873e a802 e3bd e818 e7bc
00000150: e9f0 4cbe 007a feba e342 d93d 7e01 d73d
00000160: d772 53bb 25fa b33c b9e8 1c3d 2c38 1a3e
00000170: f849 5ebd 38db aabd fe08 0ebd 487c ff3d
00000180: a43e f23d 3e0e 4dbe 36dd 1fbe b560 52be
00000190: eaed 873e 7af8 8a3b 5177 4a3f d00e 81bd
000001a0: d861 d2bb 8cbe 9ebe fad1 883d 5065 eebd
000001b0: 540d 8ebe 2b8a 22bd 5d2d 03be e909 1bbe
000001c0: af46 59be 0a7b 13bd 8b16 bcbd dc98 59ba
000001d0: af58 31be ab13 8bbd a026 19be 0022 893e
000001e0: 1bd3 f9bc 63b4 a53d e61a 11be 76a0 da3c
000001f0: 171b 02be 157f 1ebe 7267 b1bd 2618 08bf
00000200: 69ad febc a0ca 3b3d e6d6 65bf 60b2 d03d
00000210: ad13 953c 3ea5 00bd 1308 123c 4a4c c43d
00000220: c854 8fbe 7c35 f93b accc a23e 5e41 9ebd
00000230: 40b3 f93d 2726 54bd 4690 36be 9c89 58be
00000240: 8e7a 36be b4a6 3fbe 3493 afbe 359f 2dbe
00000250: b092 98bd 5f8c 1abe ff3d 24be 8c35 a0bd
00000260: ebd5 68be 4c7c 563e e799 47be a07e 52bc
00000270: 7f59 b0be 1650 7dbe 6795 8a3b d07a 7f3f
00000280: f75a 41bd 817c 89bd ea82 6c3e c888 2b3c
00000290: 1ecb 853b 9f87 073e e941 efbc 5e38 53bc
000002a0: 9fbb 283d 7a43 33bd b208 68bc 9311 603c
000002b0: f542 773d 0092 633d c30d d73d 07b7 33bc
000002c0: 2d9c 5bbd 784e bf3e 0a2a 5a3d c176 363d
000002d0: f43c a3bd ede9 ebbc 4317 3b3e aaa7 9ebe
000002e0: 0bb1 e23c b865 183e 2958 063f 0294 4e3e
000002f0: e503 e4bd b70f bdbe 2a2a 3dbe bd70 c4bc
00000300: 0734 1b3e 1c9e 853c 4f20 f93c 3b9c 3dbd
00000310: cddb 53be 9fe9 203d 9951 debb 6a95 633e
00000320: cebb 023e caf4 733d f99e e23d 9cb9 753e
00000330: bc8f 04bc faac 59be 0806 a9bd f6cd 5e3c
00000340: f10c 8a3e 04e1 db3e 1a71 3b3d 6ca3 893f
00000350: f047 d2be a5fe 62bd 7c47 79bf ed5e 933d
00000360: d020 c73d f090 2ebc 8b0b 9bbb f23f 8db9
00000370: b46d f9be d2fe 913c 2610 67bc 3aeb 063f
00000380: 392d da3d b24c 78bc 4649 d03e b7d6 a03e
00000390: 40cf 983e 71ee 5d3e f409 693e e751 02bf
000003a0: 396b af3d a059 123d 5127 66bf 2cab 63bc
000003b0: cfa0 453c 0e49 a03e 433b b8bd 647a 56bd
000003c0: b01e c1bc 216c 203e 9d9d e1bc 1f0f 283e
000003d0: 2034 12bc bd41 c13c 86f0 cfbd 3040 0ebc
000003e0: 3f6a d23d e2f0 65bd 57e5 c9b9 d51a 17be
000003f0: e00d f0bc d2f9 f53b 87a4 1dbe e920 ee3e

layers.0.bias f4 [256]
-0.15860665 -0.05201871 -0.16384012 -0.032821786 -0.20457464 -0.15604196 -0.08997441 -0.090602614
-0.25962564 0.18289556 -0.15233068 -0.057361588 -0.18832763 -0.085202865 -0.38456917 -0.5514509
-0.27831414 -0.06874075 0.18305191 -0.22883305 0.101665355 -0.44476974 -0.49358657 -0.29316583
-0.60299695 -0.32876244 -0.7007276 -0.09469608 -0.46761534 -0.5078849 0.0137975 -0.21912877
-0.15106173 -0.31542265 -0.06471068 -0.48391208 -0.34940183 -0.28045002 -0.3582681 -0.09485025
-0.097839125 -0.25367856 -0.13695723 -0.80441284 0.04574067 -0.1254393 -0.0086955745 -0.28002444
-0.6008658 -0.7175029 -0.17748319 -0.48046792 0.18514931 -0.22209926 -0.26331243 -0.41896972
-1.5026506 -0.3315012 -0.3338328 0.17081107 -0.1493728 -0.16034079 -0.23298489 -0.27998847
-0.1938507 -0.21827115 -0.32794192 -0.20856248 0.04133126 -0.36698905 -0.6247872 -0.028559867
-0.021481115 -0.36947736 -0.31596172 0.14815982 0.080035836 -0.01814147 -0.1483361 -0.06750404
0.0033929013 -0.039142873 -0.08867407 -0.49687636 0.018203797 -0.14040096 -0.33801723 -0.14813095
-0.23992376 -0.30471498 -0.18477319 -0.31378254 -0.06480883 -0.3713796 0.08141778 -0.39709276
-0.0074998476 0.21987085 -0.072348855 -0.22539546 -0.3311005 -0.09699105 -0.097852156 -0.25793353
-0.47525227 -0.5479677 -0.07550009 -0.36807653 -0.37203532 -0.49210808 -0.099263825 -0.097186506
0.018710025 -0.0837296 -0.077815875 -0.20360234 -0.2189556 -0.4482682 -0.14020188 -0.14513129
-0.27508703 -0.09036004 -0.10311246 -0.27091032 -0.16918203 -0.15260875 -0.18837625 -0.45258233
-0.057071354 -0.286631 -0.18559371 -0.50077176 -3.2803671 -0.452981 -0.37364122 -0.36201572
-0.12090195 -0.36781335 -0.018667966 -0.19067395 -0.21956773 -0.4138262 -0.022965807 -0.6550185
-0.20334844 -0.049269002 -0.50908136 -0.2128517 -0.08004483 -0.03977381 -0.46583122 -0.26009804
0.025222374 -0.45404327 -0.3708016 0.32911557 -0.48433754 -0.26733568 -0.07808616 -0.6183698
-0.22059217 -0.18172663 -0.071071625 -0.37259313 0.036718782 -0.058277793 0.1402158 -0.75955886
-0.06673807 -0.5315282 -0.1649664 0.08981405 -0.5670646 -0.25681463 -0.63458097 -0.06884291
-1.5028703 -0.31864905 -0.08570842 0.2727419 -0.098618194 -0.69372135 -0.27856556 0.11107807
0.01566886 -0.06261451 -0.363479 -0.18722387 -0.20841634 -0.44639537 -0.23641053 -0.2139015
-0.5048417 -0.3275823 -0.44748366 -0.36400035 -0.122672446 -0.33609 -0.44135687 0.13013485
-1.115614 0.08477685 -0.21786022 0.012911396 -0.8818309 -0.47176787 -0.1656705 -0.39515257
-0.35223883 -0.36832258 0.0681762 -0.26637527 0.017729934 0.22330908 -0.2037211 -0.28189808
-0.3751017 0.103763215 0.12897652 0.026650429 -0.055753704 -0.0849123 -0.44591242 -0.05611262
-0.23840111 0.02927855 -0.3691154 -0.24590649 -0.08558463 -0.26691386 -0.347069 -2.1931136
-0.16664617 -0.14562958 -0.69680893 0.23784587 0.12297532 -0.1707585 -0.2683539 -0.27320987
-0.2879723 -0.07212776 -0.1832535 -0.15201548 -0.22522704 0.014475695 -0.37710333 0.05447742
-0.10263955 -0.080560185 -0.43634617 -0.21236664 -0.113486335 -0.23137861 0.06338252 0.18781582
00000000: c869 22be 9211 55bd b4c5 27be 2370 06bd
00000010: 047c 51be 77c9 1fbe 8144 b8bd dd8d b9bd
00000020: a7ed 84be f948 3b3e 93fc 1bbe fcf3 6abd
00000030: f5d8 40be d77e aebd 40e6 c4be e32b 0dbf
00000040: 317f 8ebe f3c7 8cbd f671 3b3e 3653 6abe
00000050: ed35 d03d dcb8 e3be 61b7 fcbe d519 96be
00000060: 025e 1abf 8d53 a8be e262 33bf 05f0 c1bd
00000070: 476b efbe bf04 02bf e90e 623c 4b63 60be
00000080: edaf 1abe 147f a1be 0887 84bd 53c3 f7be
00000090: cce4 b2be 2597 8fbe eb6e b7be d940 c2bd
000000a0: e15f c8bd 28e2 81be 843e 0cbe 00ee 4dbf
000000b0: 925a 3b3d 2973 00be e277 0ebc 5d5f 8fbe
000000c0: 57d2 19bf 45ae 37bf 27be 35be e4ff f5be
000000d0: c897 3d3e fd6d 63be e3d0 86be 3383 d6be
000000e0: db56 c0bf 86ba a9be 22ec aabe 19e9 2e3e
000000f0: 2ff5 18be 6030 24be 9793 6ebe a65a 8fbe
00000100: cc80 46be 7982 5fbe 01e8 a7be 6791 55be
00000110: f84a 293d fde5 bbbe 0ef2 1fbf 62f6 e9bc
00000120: 2af9 afbc 232c bdbe bcc5 a1be 35b7 173e
00000130: d4e9 a33d 6c9d 94bc 6be5 17be 8f3f 8abd
00000140: 705b 5e3b 4754 20bd c09a b5bd 9466 febe
00000150: 2120 953c 45c5 0fbe 9810 adbe a4af 17be
00000160: 93ae 75be 9a03 9cbe 2f35 3dbe 1ba8 a0be
00000170: 7eba 84bd 7825 bebe 5dbe a63d be4f cbbe
00000180: 48c1 f5bb d325 613e a32b 94bd 11ce 66be
00000190: 0186 a9be 3ea3 c6bd b666 c8bd dd0f 84be
000001a0: 4454 f3be 9c47 0cbf cb9f 9abd 8774 bcbe
000001b0: 6a7b bebe 97f5 fbbe d54a cbbd b809 c7bd
000001c0: c445 993c 6d7a abbd ee5d 9fbd 227d 50be
000001d0: e635 60be 6983 e5be 1591 0fbe 4c9d 14be
000001e0: 35d8 8cbe af0e b9bd a02c d3bd c2b4 8abe
000001f0: 0e3e 2dbe 7845 1cbe b4e5 40be dfb8 e7be
00000200: a7c3 69bd 4cc1 92be 470c 3ebe 9432 00bf
00000210: 89f1 51c0 20ed e7be e74d bfbe 205a b9be
00000220: 719b f7bd 0852 bcbe 90ed 98bc 0840 43be
00000230: 5dd6 60be 07e1 d3be ca22 bcbc 4baf 27bf
00000240: 933a 50be 4bce 49bd 2853 02bf ccf5 59be
00000250: 8bee a3bd dde9 22bd 6e81 eebe 922b 85be
00000260: 279f ce3c 5c78 e8be b5d9 bdbe d681 a83e
00000270: 17fb f7be 39e0 88be a3eb 9fbd 7c4d 1ebf
00000280: eae2 61be 8c16 3abe 008e 91bd 87c4 bebe
00000290: 6f66 163d b2b4 6ebd bb94 0f3e 7372 42bf
000002a0: f8ad 88bd 3b12 08bf f4ec 28be 6ef0 b73d
000002b0: 252b 11bf 357d 83be e673 22bf 83fd 8cbd
000002c0: 0e5e c0bf f825 a3be e587 afbd d4a4 8b3e
000002d0: 56f8 c9bd b997 31bf 25a0 8ebe e67c e33d
000002e0: fb5b 803c 093c 80bd eb19 babe 9db7 3fbe
000002f0: 186b 55be ef8d e4be 9a15 72be ff08 5bbe
00000300: 4e3d 01bf deb8 a7be 941c e5be 415e babe
00000310: b13b fbbd fd13 acbe 87f9 e1be 1242 053e
00000320: 71cc 8ebf 7c9f ad3d c016 5fbe 528a 533c
00000330: abbf 61bf 8f8b f1be 87a5 29be 7051 cabe
00000340: a658 b4be c794 bcbe f79f 8b3d 5762 88be
00000350: 5e3e 913c 23ab 643e 449c 50be f254 90be
00000360: 540d c0be cf81 d43d 6c12 043e 0052 da3c
00000370: ff5d 64bd 80e6 adbd a24e e4be 59d6 65bd
00000380: 6c1f 74be 92d9 ef3c b2fc bcbe e9ce 7bbe
00000390: ff46 afbd efa8 88be 07b3 b1be f95b 0cc0
000003a0: 4ba5 2abe ec1f 15be 1262 32bf de8d 733e
000003b0: 7cda fb3d 51db 2ebe af65 89be 2ae2 8bbe
000003c0: 1b71 93be b8b7 93bd cea6 3bbe f2a9 1bbe
000003d0: eba1 66be 772b 6d3c b013 c1be b723 5f3d
000003e0: af34 d2bd bdfc a4bd c468 dfbe a476 59be
000003f0: 866b e8bd 84ee 6cbe b2ce 813d ca52 403e

layers.2.weight f4 [256, 256]
-0.07709187 0.0032776454 -0.033359222 -2.7359587e-05 0.048013426 0.0010473328 0.014516531 0.031419262
-0.06358421 0.0036529582 0.031129714 -0.0039593717 0.03444852 0.012817573 0.047122266 -0.07900961
0.022388054 -0.036897033 -0.006819586 0.035970442 0.012843729 -0.0046349997 -0.062448587 -0.035965692
0.0305192 -0.037485328 0.04202818 -0.054698348 0.034516137 -0.039332155 -0.047391526 0.014625367
0.014223484 -0.03205399 -0.02747677 -0.07391729 -0.056486987 -0.04745241 -0.016977508 -0.03739179
-0.03640245 -0.039391514 0.020033069 0.012997155 -0.016394164 -0.031857792 0.016231934 -0.0056520756
-0.041789103 0.030368945 -0.08535838 -0.05953127 0.009085665 -0.07721508 -0.014070945 0.009016992
-0.005685594 -0.061895654 -0.0036891936 0.0319121 -0.017016916 0.0050483015 -0.00032585455 -0.035089344
-0.0599779 -0.059103455 0.012262087 0.037286106 -0.06552745 -0.023251688 0.045062937 -0.06469054
0.042758316 0.043427795 0.029633077 0.0004926879 -0.025056262 0.026529908 0.030937005 -0.033858318
-0.06727576 -0.03739392 -0.032933567 0.041577693 0.028833397 0.04554984 -0.023806572 -0.049057532
-0.0074469117 0.03141365 0.027659738 0.01168267 0.011695118 -0.0035186464 0.04514435 -0.03435927
-0.041100442 -0.06077588 0.0261006 -0.0016333498 -0.07378053 -0.07498812 0.010279252 -0.0012825199
-0.04466087 -0.0106327515 0.009931776 0.022993257 -0.030647544 0.029278357 0.027364526 0.0072644874
0.048064623 -0.07308857 -0.049228255 0.011623697 -0.0065962174 0.004329867 -0.016621 -0.052214365
0.005336187 0.039415736 -0.065380044 -0.0283082 -0.024997521 -0.038557675 0.013580813 -0.05053939
0.002607897 -0.07535386 -0.020637775 0.0064048218 0.018713208 0.0077688927 -0.0527368 -0.053737048
0.006918413 -0.0099439295 -0.047629338 -0.020834576 -0.053104896 -0.052734792 -0.004570493 -0.054619063
0.043943256 -0.049427055 -0.015999798 -0.039888028 1.51905815e-05 0.018291352 -0.017663635 -0.060358517
0.022770068 0.001608838 -0.04697207 0.005753234 0.037485752 -0.048159778 -0.069260605 -0.048001554
-0.0023960897 -0.062255867 -0.057984125 0.0014681808 0.043698028 -0.02243367 -0.024212724 -0.040089615
-0.06200237 -0.017448196 0.016053746 0.03354964 -0.03970247 0.043416068 -0.011162263 0.0060385726
-0.029350251 -0.029636418 0.02817514 -0.06417835 -0.0055238316 -0.0084268125 -0.07374859 -0.019983677
-0.055980768 0.051045366 0.03586744 0.042860717 0.02904962 0.021819357 -0.012465945 0.022333087
-0.0014348999 -0.06779578 0.03733706 0.019310376 -0.029674752 0.045201056 -0.04612751 -0.05662011
0.03168234 -0.050798077 0.023485674 -0.029281024 -0.06900246 0.036127243 0.038593486 -0.032489855
-0.06670486 -0.016526908 -0.048604634 0.019617546 -0.046718054 -0.04278413 -0.06466414 0.02097267
-0.07527049 0.014864215 -0.01706712 0.04672499 -0.012857567 -0.020055467 -0.07086499 -0.003001275
-0.038128912 -0.055547245 -0.023975445 -0.0018680819 -0.04878588 -0.00012606573 0.012193884 -0.045320015
0.0018095865 -0.053300116 -0.029061494 0.023590026 0.009551477 0.03431216 -0.027269242 0.0041963607
0.017750628 -0.045728065 -0.014635393 -0.02959642 -0.049966022 -0.03481838 -0.033993892 -0.046054244
-0.07518054 0.003946335 0.011910538 0.027659556 0.047257204 0.009167408 -0.015701966 0.007728995
00000000: 58e2 9dbd c4cd 563b aea3 08bd 4482 e5b7
00000010: baa9 443d a846 893a bed6 6d3c 7cb1 003d
00000020: 7038 82bd 7866 6f3b be03 ff3c 9ebd 81bb
00000030: e419 0d3d cc00 523c 4703 413d cacf a1bd
00000040: 2767 b73c 5821 17bd d576 dfbb be55 133d
00000050: 816e 523c 32e1 97bb 17ca 7fbd c350 13bd
00000060: 6703 fa3c 378a 19bd be25 2c3d 600b 60bd
00000070: cb60 0d3d c11a 21bd 9e1d 42bd 3c9f 6f3c
00000080: 9e09 693c 0b4b 03bd f716 e1bc f361 97bd
00000090: e65e 67bd 755d 42bd 6a14 8bbc 2228 19bd
000000a0: bc1a 15bd ff58 21bd 641c a43c 05f2 543c
000000b0: 0e4d 86bc 517d 02bd d5f8 843c 0c35 b9bb
000000c0: 0d2b 2bbd 4bc8 f83c 60d0 aebd 10d7 73bd
000000d0: 0bdc 143c f122 9ebd d289 66bc 01bc 133c
000000e0: 384e babb 4c86 7dbd 66c6 71bb 43b6 023d
000000f0: 0f67 8bbc 396c a53b 75d7 aab9 d8b9 0fbd
00000100: 63ab 75bd 7716 72bd ece6 483c 51b9 183d
00000110: 4133 86bd 537a bebc ea93 383d 797c 84bd
00000120: 5823 2f3d 58e1 313d 11c1 f23c ba27 013a
00000130: ca42 cdbc 4055 d93c 9a6f fd3c 05af 0abd
00000140: e0c7 89bd 5e2a 19bd 59e5 06bd 5f4d 2a3d
00000150: 0434 ec3c 7892 3a3d 0006 c3bc 8df0 48bd
00000160: 3905 f4bb 99ab 003d ad96 e23c ab68 3f3c
00000170: e19c 3f3c 1799 66bb 48e9 383d 4ebc 0cbd
00000180: f058 28bd 21f0 78bd edd0 d53c 2016 d6ba
00000190: 3f1a 97bd 5f93 99bd 4f6a 283c 3a1a a8ba
000001a0: 51ee 36bd fe34 2ebc e3b8 223c 5b5c bc3c
000001b0: 8f10 fbbc 2ad9 ef3c 922b e03c f00a ee3b
000001c0: 69df 443d 76af 95bd 91a3 49bd 5271 3e3c
000001d0: 1525 d8bb 8fe1 8d3b c328 88bc bbde 55bd
000001e0: 2edb ae3b 6572 213d f9e5 85bd 99e6 e7bc
000001f0: 9ac7 ccbc a7ee 1dbd 0f82 5e3c 6402 4fbd
00000200: 40e9 2a3b 2053 9abd 8d10 a9bc 8adf d13b
00000210: 714c 993c 3292 fe3b 8b02 58bd 611b 5cbd
00000220: dbb3 e23b ddeb 22bc fb16 43bd 46ad aabc
00000230: 8584 59bd 7000 58bd 13c4 95bb 3db8 5fbd
00000240: d8fd 333d 0674 4abd 0212 83bc a161 23bd
00000250: 0ddb 7e37 bfd7 953c 54b3 90bc 7e3a 77bd
00000260: 4b88 ba3c a5df d23a c965 40bd a085 bc3b
00000270: a98a 193d 3043 45bd 81d8 8dbd 479d 44bd
00000280: b707 1dbb 0200 7fbd c380 6dbd f96f c03a
00000290: b4fc 323d d1c6 b7bc c359 c6bc 0235 24bd
000002a0: 32f6 7dbd 85ef 8ebc 2583 833c 596b 093d
000002b0: 0f9f 22bd 0cd5 313d ede1 36bc 38df c53b
000002c0: f06f f0bc 13c8 f2bc 8dcf e63c f06f 83bd
000002d0: 4201 b5bb 9d10 0abc 8009 97bd cfb4 a3bc
000002e0: 174c 65bd f214 513d bde9 123d b88e 2f3d
000002f0: 78f9 ed3c 82be b23c f73d 4cbc e1f3 b63c
00000300: 4013 bcba 84d8 8abd bfee 183d cb30 9e3c
00000310: 7718 f3bc be24 393d 33f0 3cbd 7dea 67bd
00000320: 57c5 013d a511 50bd 0765 c03c c2de efbc
00000330: 2951 8dbd 29fa 133d 3414 1e3d 1514 05bd
00000340: 8f9c 88bd 7063 87bc a715 47bd fab4 a03c
00000350: 6e5b 3fbd 693e 2fbd a26e 84bd e0ce ab3c
00000360: 6a27 9abd 0989 733c 58d0 8bbc b462 3f3d
00000370: 8ba8 52bc 5d4b a4bc aa21 91bd 0ab1 44bb
00000380: 102d 1cbd 8285 63bd 2768 c4bc 6dda f4ba
00000390: b4d3 47bd 8330 04b9 dbc8 473c 7ba1 39bd
000003a0: a62f ed3a 3951 5abd 5f12 eebc df3f c13c
000003b0: cc7d 1c3c e88a 0c3d bf63 dfbc a081 893b
000003c0: c469 913c 5a4d 3bbd 4ac9 6fbc 3174 f2bc
000003d0: 2ca9 4cbd b89d 0ebd 2e3d 0bbd 60a3 3cbd
000003e0: 41f8 99bd 4250 813b 6b24 433c 4b96 e23c
000003f0: c590 413d e532 163c 69a1 80bc 8243 fd3b

layers.2.bias f4 [256]
0.0519018 -0.00040573944 0.0065734684 0.13267715 -0.0794634 -0.1142876 -0.04589747 -0.05443996
-0.105224095 0.04978503 0.18818216 0.20101035 -0.025172068 -0.04388197 -0.045682933 -0.015524006
-0.05925032 -0.008690128 -0.20752889 -0.10968696 0.04398831 -0.07471733 -0.0064259875 0.022536999
0.12533352 0.044922743 -0.18662144 -0.066454805 -0.12533061 0.041513722 -0.055341408 -0.05175405
-0.10386064 0.008084099 0.009641603 -0.07720359 -0.007565521 -0.037293635 -0.002929388 0.0034627127
-0.004762455 0.01495221 -0.026040481 -0.06809963 0.012351135 0.022972124 0.027380323 -0.060482528
0.04487775 0.11407893 0.1051328 0.029376911 -0.018620128 -0.006049873 -0.015603281 0.09302896
-0.0035028905 0.017743262 -0.04427999 -0.04474463 -0.030947056 0.14008012 0.07175672 -0.07333564
-0.06788789 -0.167594 0.06753568 0.15155464 0.087459296 -0.057206903 0.010578604 0.01827751
-0.0068007293 -0.013888137 0.009340207 -0.016176637 0.037194025 -0.03709041 0.016151238 0.044829823
0.030854234 0.02448852 -0.031377804 -0.057729043 -0.057059933 0.0039036893 0.013919907 -0.08909923
-0.04693487 -0.029331844 0.039944123 0.21221143 -0.053737473 -0.18233348 -0.23277068 0.1440812
0.1249334 0.0048736315 -0.023611607 0.00896534 -0.007848085 -0.057127126 -0.31924668 -0.02813085
-0.09092487 0.02580966 0.050984837 -0.036587145 0.21517213 0.07373085 -0.0027241418 0.14650719
-0.067685194 0.09124732 0.011846717 -0.037028044 -0.17861861 0.00090081664 -0.0461845 0.115648255
-0.065414615 0.02648828 0.16597043 0.037871104 -0.012375699 0.04159062 0.16364613 0.19579782
0.019013021 -0.00268491 0.07132752 -0.078868054 -0.14885221 -0.04682376 -0.06634796 -0.054294873
0.087609984 -0.109802164 0.006752348 -0.071019925 -0.03235711 -0.064053126 -0.04164973 0.12094608
0.091841534 -0.10058231 0.02783706 0.033124685 0.030781407 -0.08173893 0.16549028 0.123354
0.30673638 -0.060940135 0.015188627 0.028424902 0.02451075 0.031091034 -0.2099691 -0.05300876
0.09787019 -0.050152704 -0.02052591 -0.0057845702 -0.017313616 -0.024071714 -0.16451117 -0.07649745
-0.038148984 0.13248853 0.15737903 -0.119580045 0.037823815 -0.16095586 0.06333978 0.0038832924
0.051728174 -0.02423098 -0.072536714 0.0054747704 -0.073035814 -0.016588464 -0.10119573 -0.12586436
0.05839838 -0.04469777 -0.030865556 0.027700802 -0.0212687 -0.09924165 -0.0061338576 -0.00871236
-0.011935128 -0.0060283057 -0.20210597 -0.04588546 0.1415314 0.14420794 0.050427567 0.4728356
-0.14669281 -0.113950156 -0.047546815 -0.146678 0.16346362 -0.003088885 -0.039326187 -0.0025670384
-0.24986598 0.065586984 -0.031626925 -0.04798458 -0.06140091 -0.0010468768 -0.12006959 -0.043389414
-0.046441514 0.050620075 0.16867886 -0.09536323 -0.05781598 -0.11023396 0.078892335 -0.031057728
0.020666448 -0.017263612 -0.049271733 -0.19648345 0.030758498 0.04539332 0.007168356 -0.10257292
-0.09929246 -0.018232338 0.04979972 -0.10327507 -0.06592309 -0.022161912 -0.006552364 0.06228267
-0.18521564 0.034565307 0.049095456 -0.085239924 0.23295455 0.002407593 0.0072148703 -0.2822226
0.030955425 -0.05889348 -0.025913358 -0.12883928 -0.07103115 0.09647682 -0.007341703 -0.020344332
00000000: fb96 543d 6db9 d4b9 4066 d73b 85dc 073e
00000010: b5bd a2bd 9e0f eabd fcfe 3bbd 6ffc 5ebd
00000020: bb7f d7bd 63eb 4b3d d3b2 403e a8d5 4d3e
00000030: a735 cebc 95bd 33bd 071e 3bbd 6758 7ebc
00000040: 77b0 72bd 0a61 0ebc 7482 54be 8fa3 e0bd
00000050: 162d 343d 6605 99bd 1791 d2bb 839f b83c
00000060: 6e57 003e e900 383d b119 3fbe 7519 88bd
00000070: ab56 00be 4b0a 2a3d acad 62bd 0efc 53bd
00000080: e3b4 d4bd 2b73 043c d0f7 1d3c ea1c 9ebd
00000090: 31e8 f7bb 36c1 18bd fafa 3fbb aeee 623b
000000a0: 5e0e 9cbb 1dfa 743c d952 d5bc d277 8bbd
000000b0: 6a5c 4a3c 0930 bc3c b34c e03c 87bc 77bd
000000c0: bbd1 373d 37a2 e93d de4f d73d d9a7 f03c
000000d0: 3d89 98bc 033e c6bb e7a4 7fbc f885 be3d
000000e0: c090 65bb 515a 913c ef5e 35bd 2546 37bd
000000f0: ae84 fdbc 2a71 0f3e 30f5 923d ff30 96bd
00000100: ce08 8bbd c39d 2bbe 2650 8a3d 2431 1b3e
00000110: dc1d b33d c951 6abd e251 2d3c b7ba 953c
00000120: a7d8 debb 128b 63bc ab07 193c de84 84bc
00000130: c358 183d 1dec 17bd 9a4f 843c 7a9f 373d
00000140: 05c2 fc3c 269c c83c 0386 00bd 4a75 6cbd
00000150: adb7 69bd 0ad5 7f3b 5210 643c a879 b6bd
00000160: c73e 40bd 5649 f0bc 739c 233d f44d 593e
00000170: d31b 5cbd a1b5 3abe 705b 6ebe 068a 133e
00000180: 15dd ff3d fcb2 9f3b 216d c1bc 5de3 123c
00000190: 4195 00bc 22fe 69bd 4d74 a3be ab72 e6bc
000001a0: d136 babd c86e d33c 7ad5 503d 67dc 15bd
000001b0: 1556 5c3e 3300 973d 8487 32bb fb05 163e
000001c0: 899e 8abd e0df ba3d bc18 423c b8aa 17bd
000001d0: cce7 36be c824 6c3a f52b 3dbd fed8 ec3d
000001e0: 19f8 85bd f3fd d83c 27f4 293e bb1e 1b3d
000001f0: 72c3 4abc ed5a 2a3d da92 273e 397f 483e
00000200: 32c1 9b3c 51f5 2fbb 2a14 923d 9385 a1bd
00000210: b76c 18be 45ca 3fbd 70e1 87bd 4d64 5ebd
00000220: dd6c b33d f5df e0bd cd42 dd3b e572 91bd
00000230: e488 04bd 492e 83bd e898 2abd 94b2 f73d
00000240: 6a17 bc3d 19fe cdbd 8c0a e43c c0ad 073d
00000250: 4a29 fc3c bd66 a7bd 4976 293e 06a1 fc3d
00000260: 8d0c 9d3e 5d9c 79bd b8d9 783c 57db e83c
00000270: c5ca c83c a0b2 fe3c 2402 57be b71f 59bd
00000280: 2b70 c83d ec6c 4dbd f425 a8bc 7e8c bdbb
00000290: 49d5 8dbc 0b32 c5bc 9e75 28be b2aa 9cbd
000002a0: 1c42 1cbd 13ab 073e f827 213e 62e6 f4bd
000002b0: 25ed 1a3d 9dd1 24be 49b8 813d d67e 7e3b
000002c0: ece0 533d 0c80 c6bc 218e 94bd b465 b33b
000002d0: cd93 95bd 88e4 87bc b53f cfbd 96e2 00be
000002e0: 2433 6f3d 0215 37bd c3d9 fcbc cbec e23c
000002f0: b23b aebc 353f cbbd 87fe c8bb 49be 0ebc
00000300: 8e8b 43bc 1889 c5bb def4 4ebe 64f2 3bbd
00000310: 9bed 103e 3fab 133e 238d 4e3d 8217 f23e
00000320: a436 16be b35e e9bd 73c0 42bd c232 16be
00000330: 0263 273e e46e 4abb 7f14 21bd c23b 28bb
00000340: dedc 7fbe 7852 863d 3c8b 01bd 7b8b 44bd
00000350: 857f 7bbd 5b37 89ba 0ce7 f5bd 19b9 31bd
00000360: 7539 3ebd ff56 4f3d 27ba 2c3e cc4d c3bd
00000370: 73d0 6cbd 58c2 e1bd 4e92 a13d c76c febc
00000380: af4c a93c 6b6c 8dbc 28d1 49bd f532 49be
00000390: 3ff9 fb3c 59ee 393d 87e4 ea3b c011 d2bd
000003a0: d859 cbbd fc5b 95bc cbfa 4b3d e181 d3bd
000003b0: af02 87bd e68c b5bc 37b5 d6bb 1d1c 7f3d
000003c0: 2ba9 3dbe 5a94 0d3d 5118 493d 4592 aebd
000003d0: a38b 6e3e b5c8 1d3b b86a ec3b 7b7f 90be
000003e0: 3b96 fd3c 4a3a 71bd 4048 d4bc 72ee 03be
000003f0: c878 91bd a495 c53d ab92 f0bb 28a9 a6bc

out.weight f4 [2, 256]
0.0070963856 0.3999409 -0.011611484 -0.86616725 0.029433113 0.4208442 0.24512668 0.0048695724
0.7143741 0.009026227 0.08425553 0.13232261 0.012321483 0.014233858 0.009597433 0.08233252
-0.006402268 -0.017049773 0.45022458 0.18326731 0.009041737 0.010206698 0.008500512 -0.016408466
0.014168353 -0.01779155 0.5416457 0.013982554 0.36629578 0.0056019076 0.22870049 0.14695336
0.3604619 0.01803165 -0.00035663208 0.23594737 0.013479012 -0.01752942 -0.016844789 -0.018344847
0.013858753 0.006361565 -0.016305745 0.015306527 0.12084069 -0.015824841 -0.25969973 0.5439182
0.007922167 0.5750218 0.029653747 0.010615737 0.011383449 0.16362254 0.012019527 0.045393128
0.0090003135 -2.0104659 0.01311005 0.005024433 0.009887733 0.13097754 -0.43399823 0.010832822
0.009144209 0.42404023 0.6963201 0.37015465 0.13038865 0.013240632 -0.0038897023 0.5464716
0.012445212 0.009528526 0.61832964 0.0067822207 0.010658672 0.49254328 0.009718823 0.009463013
0.33517367 0.011708725 0.36621228 -0.017952578 0.2749383 0.010265715 0.0061250394 0.23818217
-0.017529178 0.58873326 0.02015468 0.15007429 -0.01736622 0.25692514 0.2895927 0.029079724
-0.02446844 0.0072678667 0.0078023723 0.20943579 0.007599605 0.011823932 0.27479511 0.008606263
0.54695535 -0.41799444 0.006828393 0.010206338 0.088257276 0.08087607 0.016268166 0.012140859
0.08774658 0.37066615 0.00734307 0.014205191 0.45810306 0.1869273 0.011351855 0.096903756
0.009589821 0.523328 0.047448937 0.006475991 0.015238705 -0.013556419 0.12863687 0.114854105
0.007777072 0.006443552 0.03166084 -0.0172793 0.33550605 -0.019606307 0.009574475 0.011890814
0.06908415 0.30360934 0.23686332 0.69905305 0.006406346 -0.019488577 0.66310036 0.017656498
0.010334358 0.2402712 0.1025995 -0.0047901366 0.0074995495 0.45728686 0.13436145 0.04394978
0.20016254 -0.015284095 0.011782503 -0.2926232 -0.00557424 0.044874206 0.40290016 0.40251234
0.020339265 0.012847855 0.026988072 0.014361303 0.004662797 -0.009433139 0.45384622 -0.01793003
-0.016981196 0.032677606 0.16860217 0.45480838 0.0095766345 1.2130615 0.21657509 0.0070957113
0.026078809 -0.00015551335 -0.01850403 0.01251695 0.05484992 0.011261121 0.55808353 0.30570295
0.1312931 0.010485276 0.0099512385 0.010239746 0.009620338 0.0007449729 -0.017025229 0.25489908
0.11591796 0.0051556583 0.55887485 0.0016802821 -0.9789729 0.072073236 0.007881304 -0.55081713
0.2135435 0.5075285 -0.018000422 0.3467674 0.07466063 0.04462418 -0.016508231 0.29143363
0.43735534 0.046271462 0.06509295 0.010786249 0.0152821755 -0.019823784 0.3168316 0.013640663
0.012071649 0.0049511823 0.019133372 0.41326684 0.0076349396 0.258362 0.34406522 0.3136617
0.099403575 0.035222407 0.010261855 0.4148636 -0.019725027 0.062220164 -0.018565517 0.493747
0.10803258 0.0130895125 0.010114306 0.4299293 0.0067019477 0.30660656 0.17710456 0.39991555
0.21383782 -0.018049583 -0.020273676 0.4454324 -1.103033 0.013847492 0.16928515 0.24409898
0.01447963 0.011242616 0.007199088 0.26078787 -0.01679549 0.046073724 -0.014256578 0.012705032
00000000: cc88 e83b 0ec5 cc3e 183e 3ebc 23bd 5dbf
00000010: b61d f13c e478 d73e 7d02 7b3e ef90 9f3b
00000020: 39e1 363f bde2 133c 2a8e ac3d 947f 073e
00000030: 0ce0 493c 2135 693c 8d3e 1d3c f49d a83d
00000040: 1eca d1bb f7ab 8bbc d683 e63e 6daa 3b3e
00000050: cb23 143c ff39 273c bb45 0b3c 0c6b 86bc
00000060: 6122 683c 96bf 91bc 4ba9 0a3f 1517 653c
00000070: 1f8b bb3e 3590 b73b 7630 6a3e f17a 163e
00000080: 768e b83e 1cb7 933c 59fa bab9 309c 713e
00000090: 13d7 5c3c dc99 8fbc 15fe 89bc ef47 96bc
000000a0: d30f 633c ad74 d03b a093 85bc 3ac8 7a3c
000000b0: 537b f73d 19a3 81bc 5df7 84be 393e 0b3f
000000c0: facb 013c a134 133f 6aec f23c a1ed 2d3c
000000d0: a581 3a3c ab8c 273e 8ded 443c 25ee 393d
000000e0: 0d76 133c 79ab 00c0 89cb 563c 00a4 a43b
000000f0: 2800 223c fa1e 063e 0435 debe 267c 313c
00000100: 98d1 153c cd1b d93e 0942 323f e984 bd3e
00000110: 9a84 053e 3cef 583c 60ea 7ebb 90e5 0b3f
00000120: 01e7 4b3c 891d 1c3c da4a 1e3f 643d de3b
00000130: b6a1 2e3c a22e fc3e b33b 1f3c c10a 1b3c
00000140: e29b ab3e f4d5 3f3c 2d80 bb3e 4911 93bc
00000150: b6c4 8c3e 8831 283c 8eb4 c83b 07e6 733e
00000160: 5a99 8fbc 39b7 163f 6d1b a53c 13ad 193e
00000170: 9a43 8ebc b18b 833e 7f45 943e 9a38 ee3c
00000180: 0a72 c8bc 4927 ee3b 0bab ff3b 5676 563e
00000190: 1b06 f93b 2ab9 413c f2b1 8c3e 4901 0d3c
000001a0: 4405 0c3f 5e03 d6be b6c0 df3b 7c38 273c
000001b0: 3bc0 b43d 5aa2 a53d d144 853c 74ea 463c
000001c0: 7bb4 b33d f4c7 bd3e 239e f03b e4bc 683c
000001d0: 7c8c ea3e df69 3f3e 21fd 393c 7a75 c63d
000001e0: a01e 1d3c d3f8 053f d159 423d 8d34 d43b
000001f0: c3ab 793c be1b 5ebc 62b9 033e a138 eb3d
00000200: cfd6 fe3b 6f24 d33b ccae 013d 528d 8dbc
00000210: 73c7 ab3e 689d a0bc 42de 1c3c b0d1 423c
00000220: fe7b 8d3d af72 9b3e 4c8c 723e 24f5 323f
00000230: 53ec d13b 82a6 9fbc f2c0 293f 5ca4 903c
00000240: 7051 293c a709 763e b01f d23d 94f6 9cbb
00000250: c8be f53b 8121 ea3e 0c96 093e af04 343d
00000260: 69f7 4c3e 246a 7abc 660b 413c b5d2 95be
00000270: 1da8 b6bb 04ce 373d ee48 ce3e 1916 ce3e
00000280: 889e a63c cf7f 523c 1716 dd3c ac4b 6b3c
00000290: 60ca 983b 748d 1abc 885e e83e 00e2 92bc
000002a0: 261c 8bbc f4d8 053d 0ca6 2c3e a5dc e83e
000002b0: 51e7 1c3c 9945 9b3f dcc5 5d3e 2483 e83b
000002c0: 3aa3 d53c 4c11 23b9 c395 97bc e513 4d3c
000002d0: 4faa 603d 9180 383c 90de 0e3f 1985 9c3e
000002e0: b371 063e 6fca 2b3c 850a 233c 9cc4 273c
000002f0: 9f9e 1d3c 494a 433a 7e78 8bbc 2282 823e
00000300: 6566 ed3d ccf0 a83b 6c12 0f3f e93c dc3a
00000310: f89d 7abf 229b 933d 9620 013c 5a02 0dbf
00000320: 26ab 5a3e 63ed 013f 9f75 93bc 7f8b b13e
00000330: ace7 983d d8c7 363d 453c 87bc ca36 953e
00000340: 0aed df3e 2587 3d3d 744f 853d cfb8 303c
00000350: 1762 7a3c 7d65 a2bc c037 a23e 167d 5f3c
00000360: 2ac8 453c 873d a23b 97bd 9c3c b697 d33e
00000370: 842e fa3b 0648 843e 5129 b03e 4498 a03e
00000380: 1a94 cb3d 5f45 103d 5721 283c 0069 d43e
00000390: 6196 a1bc 92da 7e3d b616 98bc 68cc fc3e
000003a0: 2f40 dd3d 6575 563c 79b6 253c b11f dc3e
000003b0: 039c db3b 89fb 9c3e e65a 353e bbc1 cc3e
000003c0: 4df8 5a3e b8dc 93bc fb14 a6bc b70f e43e
000003d0: 2f30 8dbf 97e0 623c 1659 2d3e 15f5 793e
000003e0: f83b 6d3c f332 383c 54e6 eb3b fd85 853e
000003f0: b296 89bc cdb7 3c3d 6c94 69bc c428 503c

out.bias f4 [2]
0.019919703 0.020202331
00000000: a52e a33c 5c7f a53c
