plugins/MultiAgentCRTools/weights/qf_target.pt (torch, 295580 bytes, 6 tensors)

layers.0.weight f4 [256, 26]
-0.039577883 -0.5816581 -0.06922965 0.7872547 -0.021582289 -0.054080084 -1.1837051 -0.027617356
-0.038005143 0.04352708 -0.0009569824 0.0566887 0.087731674 -0.027611447 -0.07370539 -0.13982086
0.16324419 0.15725859 0.010204628 0.06713891 0.10115349 0.23707564 0.007839772 0.10964051
0.49349272 -0.23690113 -0.49322772 0.53584534 -0.018229414 -0.20771374 -0.062033225 -0.1196528
-0.49623483 -0.052770756 0.31803694 0.028122734 -0.03339073 -0.07472971 -0.034965225 -0.18876728
0.35294825 -0.02191956 0.017414229 0.011233987 -0.032354794 -0.20044976 0.08072933 0.05604836
-0.27699083 0.02120652 0.14312662 -0.10337449 -0.49117026 -0.0711272 0.0901149 -0.017611325
-0.15108787 -0.037267957 -0.050040945 0.03242117 -0.02222582 -0.017506352 0.18772808 0.005356805
0.062123228 -0.12423069 -0.01005189 -0.40972644 -0.15474 -0.13445376 -0.42246756 0.27961406
-0.2907919 0.11092214 -0.63024694 0.0902578 -0.059800506 0.024585329 -0.39626706 0.7565712
-0.02033848 0.26286262 -0.11473508 -0.028148338 -0.1757097 -0.0010873196 0.11494202 0.10706016
-0.011704637 0.029875308 0.010461311 0.15733977 -0.05844174 -0.08513922 -0.025393134 0.13660972
0.096143104 -0.19629137 -0.17567578 -0.20140325 0.26464063 0.005848785 0.7912449 -0.05135158
-0.006492177 -0.32225785 0.070800394 -0.11366029 -0.2859343 -0.043271873 -0.12721117 -0.15003204
-0.21235602 -0.03495587 -0.09158826 -0.0008930128 -0.16496602 -0.06654186 -0.15497674 0.26118273
-0.022442522 0.08991594 -0.13724661 0.016007403 -0.11831099 -0.15592836 -0.08716509 -0.53544897
-0.0313595 0.059802048 -0.89082897 0.08365096 0.014536306 -0.028099602 0.0078566065 0.08786656
-0.28442806 0.008193729 0.31762287 -0.080714546 0.12095709 -0.058708522 -0.17178556 -0.21196114
-0.18103497 -0.18226771 -0.34921443 -0.15673567 -0.055851676 -0.14780223 -0.15913603 -0.07511967
-0.2246723 0.211584 -0.17771983 -0.01157378 -0.35026017 -0.27026328 0.0084445 0.98916656
-0.046676133 -0.07321776 0.22588046 0.008897147 -0.00059695647 0.12967674 -0.031843934 -0.010739515
0.04657799 -0.044744987 -0.006373888 0.012099815 0.064119376 0.065887764 0.11192335 -0.0018184087
-0.048398055 0.35976714 0.05634398 0.047149017 -0.10375921 -0.02131516 0.18119109 -0.29965356
0.029769203 0.14980969 0.52793485 0.19977635 -0.113352515 -0.36245716 -0.18287483 -0.03274157
0.14470382 0.024000766 0.021880478 -0.039918277 -0.20403275 0.053026903 -0.009128887 0.23321505
0.1296743 0.07227102 0.10679106 0.23665054 -0.008974779 -0.21049789 -0.07793551 0.013822301
0.26002505 0.43905333 0.048217658 1.0912074 -0.40694565 -0.048377495 -0.96753633 0.07197999
0.08933072 -0.02155857 -0.0065040085 -0.006051639 -0.4711747 0.020128801 -0.009338117 0.51365644
0.12129935 -0.024734551 0.4171007 0.31322542 0.30723536 0.22031647 0.2392018 -0.49716872
0.05700192 0.041534703 -0.8930654 -0.0016457842 0.013297213 0.31254217 -0.09111176 -0.051720984
-0.02698479 0.15704204 -0.02724745 0.16261366 -0.0059454716 0.027252095 -0.1111573 -0.0028768391
0.1125825 -0.057805374 0.00918631 -0.14313985 -0.027876532 0.011792555 -0.15485947 0.46010375
00000000: 6b1c 22bd 8ce7 14bf 46c8 8dbd 8689 493f
00000010: 57cd b0bc 1483 5dbd a683 97bf cb3d e2bc
00000020: 48ab 1bbd 7449 323d 00de 7aba 6932 683d
00000030: aaac b33d 6731 e2bc daf2 96bd 332d 0fbe
00000040: 7c29 273e 6508 213e 5031 273c 2080 893d
00000050: 9029 cf3d f5c3 723e 6372 003c 348b e03d
00000060: 14ab fc3e 3696 72be 5888 fcbe 292d 093f
00000070: da55 95bc e9b2 54be 8d16 7ebd 870c f5bd
00000080: 7e12 febe 2626 58bd bdd5 a23e a661 e63c
00000090: b8c4 08bd e40b 99bd b237 0fbd 364c 41be
000000a0: a2b5 b43e a690 b3bc 49a8 8e3c c20e 383c
000000b0: 7686 04bd b442 4dbe 6b55 a53d f792 653d
000000c0: bed1 8dbe 4cb9 ad3c c98f 123e 01b6 d3bd
000000d0: ab7a fbbe 23ab 91bd 298e b83d a045 90bc
000000e0: c7b6 1abe 49a6 18bd bcf7 4cbd 10cc 043d
000000f0: ec12 b6bc 7b69 8fbc ca3b 403e 2388 af3b
00000100: ed74 7e3d a96c febd afb0 24bc aac7 d1be
00000110: 2a74 1ebe 3fae 09be ab4d d8be 9329 8f3e
00000120: ade2 94be 262b e33d dd57 21bf 15d9 b83d
00000130: 60f1 74bd 2c67 c93c 84e3 cabe a6ae 413f
00000140: e29c a6bc ee95 863e 3afa eabd 5897 e6bc
00000150: 3eed 33be 6484 8eba b966 eb3d 5b42 db3d
00000160: cec4 3fbc 10bd f43c eb65 2b3c ad1d 213e
00000170: 9b60 6fbd 795d aebd 4305 d0bc 6be3 0b3e
00000180: ade6 c43d 9b00 49be 5ae4 33be a73c 4ebe
00000190: fa7e 873e 2aa7 bf3b 078f 4a3f 0956 52bd
000001a0: 54bc d4bb fbfe a4be ccff 903d bac6 e8bd
000001b0: fb65 92be d93d 31bd a543 02be 00a2 19be
000001c0: db73 59be e32d 0fbd a092 bbbd 1319 6aba
000001d0: daec 28be 1947 88bd 39b2 1ebe beb9 853e
000001e0: 61d9 b7bc d925 b83d 608a 0cbe f521 833c
000001f0: 084d f2bd afab 1fbe 9c83 b2bd 2f13 09bf
00000200: d272 00bd fef2 743d 5e0d 64bf 3251 ab3d
00000210: b029 6e3c 2331 e6bc ffb8 003c 62f3 b33d
00000220: 8ea0 91be fe3e 063c 779f a23e ab4d a5bd
00000230: 5ab8 f73d 5978 70bd 8ee8 2fbe 570c 59be
00000240: 3b61 39be 63a4 3abe 3ccc b2be 517f 20be
00000250: bac4 64bd 7859 17be 8ef4 22be 57d8 99bd
00000260: 7f10 66be 7aa9 583e 30fc 35be f49f 3dbc
00000270: 4d55 b3be f35f 8abe cd5a 0a3c 053a 7d3f
00000280: 792f 3fbd 31f3 95bd 354d 673e 57c5 113c
00000290: 127d 1cba fbc9 043e c96e 02bd caf4 2fbc
000002a0: 90c8 3e3d 8546 37bd 0cdc d0bb 4d3e 463c
000002b0: 0551 833d 2af0 863d 1238 e53d ac57 eeba
000002c0: 0a3d 46bd 6633 b83e f2c8 663d 541f 413d
000002d0: b57f d4bd 219d aebc 288a 393e 316c 99be
000002e0: 8bde f33c b667 193e bd26 073f 2c92 4c3e
000002f0: 5d25 e8bd fc93 b9be 8a43 3bbe 061c 06bd
00000300: 3d2d 143e 419d c43c b03e b33c 5981 23bd
00000310: f6ed 50be bd32 593d 5491 15bc edcf 6e3e
00000320: 57c9 043e d402 943d 45b5 da3d 8554 723e
00000330: f40a 13bc c28c 57be a79c 9fbd ef76 623c
00000340: 0122 853e 99cb e03e e17f 453d afac 8b3f
00000350: 2e5b d0be 7b27 46bd 76b0 77bf 3f6a 933d
00000360: 06f3 b63d 999b b0bc 941f d5bb d44c c6bb
00000370: cf3d f1be 28e5 a43c e7fe 18bc fd7e 033f
00000380: cb6b f83d 1da0 cabc 398e d53e 155f a03e
00000390: f44d 9d3e a49a 613e 51f1 743e e68c febe
000003a0: d87a 693d 4b20 2a3d ef9f 64bf 5bb7 d7ba
000003b0: 8edc 593c 8705 a03e cd98 babd 62d9 53bd
000003c0: 350f ddbc a1cf 203e 0b36 dfbc 3284 263e
000003d0: 3bd2 c2bb c93f df3c 70a6 e3bd 5a89 3cbb
000003e0: a791 e63d 54c5 6cbd 2d82 163c 4193 12be
000003f0: 535d e4bc 9035 413c 7b93 1ebe b892 eb3e

layers.0.bias f4 [256]
-0.151044 -0.053471074 -0.16154669 -0.0338069 -0.19613606 -0.1548586 -0.09256138 -0.08789167
-0.25948125 0.18144324 -0.15005364 -0.053620666 -0.18929036 -0.0873894 -0.37954783 -0.5504319
-0.28035668 -0.07247017 0.17656945 -0.22360177 0.102137536 -0.4418713 -0.49352723 -0.2865416
-0.6002619 -0.32124197 -0.68795794 -0.09716936 -0.46352813 -0.5046389 0.0154403495 -0.21348432
-0.14952904 -0.31960246 -0.071746536 -0.48242673 -0.34703705 -0.27755943 -0.34648412 -0.099736616
-0.09427366 -0.25088528 -0.14002185 -0.79155535 0.047581084 -0.12427313 -0.007107738 -0.27905145
-0.59659696 -0.7103988 -0.17823271 -0.47221413 0.1840642 -0.21784529 -0.26311812 -0.41930577
-1.4961016 -0.32429922 -0.32537293 0.17517017 -0.14364049 -0.15970096 -0.23198514 -0.2734271
-0.18686166 -0.21191007 -0.32497525 -0.20520933 0.03673978 -0.36416978 -0.6200699 -0.030584438
-0.025528196 -0.3641806 -0.3041033 0.14869931 0.080485746 -0.019099005 -0.13838802 -0.06946729
0.007023609 -0.03548249 -0.08335881 -0.48592082 0.020872435 -0.13643165 -0.32903412 -0.13498175
-0.23812568 -0.2969165 -0.18202434 -0.32245138 -0.063364655 -0.36576125 0.07346793 -0.3905167
-0.004957627 0.22271588 -0.07038184 -0.21574739 -0.32162476 -0.09888712 -0.09513755 -0.25140682
-0.47201166 -0.5252434 -0.06737189 -0.360393 -0.35749066 -0.48837426 -0.10372716 -0.09691739
0.020117333 -0.08024143 -0.07823364 -0.2027177 -0.21224879 -0.4441237 -0.13271149 -0.14103931
-0.27168548 -0.08981091 -0.10412679 -0.26913184 -0.16339727 -0.1515707 -0.18489344 -0.43830204
-0.05619996 -0.28412646 -0.18273996 -0.49548286 -3.2715917 -0.44750357 -0.36960047 -0.35420865
-0.12168785 -0.35817707 -0.01587269 -0.18956387 -0.21801859 -0.41169715 -0.01825615 -0.63632226
-0.20220119 -0.047876123 -0.5018002 -0.20894235 -0.07973996 -0.035859376 -0.4574748 -0.2598946
0.027671956 -0.44898316 -0.3678472 0.32390144 -0.48833814 -0.2662029 -0.07439366 -0.614284
-0.21973528 -0.17522955 -0.07151606 -0.37027332 0.03735136 -0.06042274 0.13803029 -0.75785136
-0.065725595 -0.52500457 -0.15982778 0.09132503 -0.55355567 -0.25182754 -0.6356915 -0.06894975
-1.4973321 -0.31530902 -0.08430098 0.26728708 -0.096013814 -0.68590087 -0.27726656 0.10279406
0.019687578 -0.061973162 -0.35940963 -0.18140799 -0.20247127 -0.43737602 -0.22865403 -0.2102525
-0.5044523 -0.32705936 -0.44528434 -0.35937962 -0.12896653 -0.33340567 -0.44207996 0.12990236
-1.1116941 0.08359191 -0.21221851 0.015117445 -0.8752306 -0.46566454 -0.16271281 -0.38911563
-0.34265146 -0.35998368 0.07219541 -0.26882038 0.0224407 0.22059025 -0.20334215 -0.2825474
-0.37316108 0.10711863 0.12002471 0.032523185 -0.05215296 -0.07944706 -0.4454 -0.053649575
-0.2357967 0.038788654 -0.36178246 -0.24711965 -0.08602696 -0.2685341 -0.34570372 -2.188572
-0.17405918 -0.14236848 -0.6940787 0.23615743 0.11870439 -0.1694253 -0.26138654 -0.269004
-0.2818888 -0.06524935 -0.18058707 -0.14920652 -0.22200002 0.015967317 -0.3751822 0.058127403
-0.09680511 -0.079246685 -0.43632513 -0.20956412 -0.11197249 -0.22876278 0.06265131 0.18511714
00000000: 47ab 1abe 7c04 5bbd 7f6c 25be 1b79 0abd
00000010: e4d7 48be 4193 1ebe d290 bdbd 8c00 b4bd
00000020: bada 84be 42cc 393e a9a7 19be 58a1 5bbd
00000030: 55d5 41be 37f9 b2bd 1854 c2be 1be9 0cbf
00000040: e98a 8fbe 3e6b 94bd 9fce 343e ddf7 64be
00000050: 7c2d d13d f43c e2be 9aaf fcbe 95b5 92be
00000060: c4aa 19bf d479 a4be 031e 30bf bb00 c7bd
00000070: 8f53 edbe 0430 01bf 85f9 7c3c a29b 5abe
00000080: 241e 19be efa2 a3be d9ef 92bd a300 f7be
00000090: d7ae b1be 451c 8ebe 5e66 b1be b642 ccbd
000000a0: 8c12 c1bd 0974 80be e361 0fbe 5fa3 4abf
000000b0: 62e4 423d e982 febd 07e8 e8bb d5df 8ebe
000000c0: 94ba 18bf b2dc 35bf a382 36be 0dc6 f1be
000000d0: 537b 3c3e d612 5fbe 6bb7 86be 3faf d6be
000000e0: 4280 bfbf 8c0a a6be 4897 a6be cf5f 333e
000000f0: 7e16 13be a688 23be 838d 6dbe a3fe 8bbe
00000100: aa58 3fbe f4fe 58be 2863 a6be 6522 52be
00000110: 747c 163d 7674 babe e7bc 1ebf 378c fabc
00000120: 8220 d1bc e175 babe 6eb3 9bbe a244 183e
00000130: b6d5 a43d 8475 9cbc 97b5 0dbe de44 8ebd
00000140: 4d26 e63b 1656 11bd 06b8 aabd 9dca f8be
00000150: abfc aa3c bdb4 0bbe 2977 a8be a838 0abe
00000160: 38d7 73be 7105 98be 9764 3abe 5918 a5be
00000170: 54c5 81bd 0f45 bbbe 5b76 963d cef1 c7be
00000180: 9773 a2bb a20f 643e 5b24 90bd e2ec 5cbe
00000190: 00ac a4be 5585 cabd 7ad7 c2bd 65b8 80be
000001a0: 83ab f1be 5a76 06bf 46fa 89bd 6e85 b8be
000001b0: 0409 b7be 310c fabe e86e d4bd a07c c6bd
000001c0: 1bcd a43c 9e55 a4bd f538 a0bd 3b95 4fbe
000001d0: bf57 59be 2e64 e3be 85e5 07be 9c6c 10be
000001e0: 5c1a 8bbe c8ee b7bd 6d40 d5bd a6cb 89be
000001f0: 9d51 27be 5935 1bbe b554 3dbe 2069 e0be
00000200: ee31 66bd 0679 91be 2f20 3bbe eeaf fdbe
00000210: c261 51c0 301f e5be 463c bdbe d65a b5be
00000220: 7b37 f9bd fc62 b7be 7207 82bc 081d 42be
00000230: 4440 5fbe f8c9 d2be ec8d 95bc 04e6 22bf
00000240: d40d 4fbe c119 44bd fa75 00bf fcf4 55be
00000250: b44e a3bd 48e1 12bd 233a eabe e810 85be
00000260: 4cb0 e23c 1fe1 e5be 7856 bcbe 69d6 a53e
00000270: 7507 fabe bf4b 88be b45b 98bd b741 1dbf
00000280: 4902 61be 606f 33be 0377 92bd 7794 bdbe
00000290: bdfd 183d d67d 77bd d057 0d3e 8c02 42bf
000002a0: 249b 86bd b366 06bf e5a9 23be 9e08 bb3d
000002b0: d3b5 0dbf 8aef 80be aebc 22bf 8735 8dbd
000002c0: 94a8 bfbf 2f70 a1be fea5 acbd dad9 883e
000002d0: e4a2 c4bd 3397 2fbf e2f5 8dbe b185 d23d
000002e0: d847 a13c 92d7 7dbd 8a04 b8be 04c3 39be
000002f0: a154 4fbe c0ef dfbe 4824 6abe 6e4c 57be
00000300: c923 01bf 5374 a7be 4ffc e3be 9b00 b8be
00000310: cd0f 04be 26b4 aabe 4e58 e2be 2005 053e
00000320: fe4b 8ebf 3c32 ab3d cf4f 59be 29af 773c
00000330: 1d0f 60bf 956b eebe 309e 26be 2a3a c7be
00000340: 0370 afbe c84f b8be 30db 933d d3a2 89be
00000350: 8fd5 b73c 69e2 613e ed38 50be 0eaa 90be
00000360: f80e bfbe 0361 db3d 84cf f53d 0837 053d
00000370: 589e 55bd 24b5 a2bd 780b e4be a8bf 5bbd
00000380: b174 71be dae0 1e3d 8d3b b9be ef0c 7dbe
00000390: e72e b0bd 4d7d 89be 1400 b1be 9011 0cc0
000003a0: 923c 32be 0bc9 11be 24af 31bf 41d3 713e
000003b0: 4a1b f33d d37d 2dbe 75d4 85be e4ba 89be
000003c0: bb53 90be 74a1 85bd d1eb 38be 98c9 18be
000003d0: f953 63be e4cd 823c e217 c0be 0017 6e3d
000003e0: c241 c6bd 164c a2bd 0266 dfbe fa97 56be
000003f0: d551 e5bd ca40 6abe 544f 803d 598f 3d3e

layers.2.weight f4 [256, 256]
-0.07709049 0.00327763 -0.03335889 -2.7359265e-05 0.048014194 0.0010473547 0.014516631 0.0314195
-0.06358407 0.0036529996 0.031129858 -0.0039592893 0.034448907 0.012817712 0.04712236 -0.079008274
0.022388084 -0.03689643 -0.0068195695 0.035971064 0.012843789 -0.0046349643 -0.06244822 -0.035965107
0.030519282 -0.037485026 0.04202811 -0.05469812 0.034516707 -0.03933224 -0.04739133 0.01462541
0.014223637 -0.032053754 -0.027476465 -0.07391654 -0.056487005 -0.047452424 -0.016977504 -0.03739115
-0.036402456 -0.039390888 0.020032955 0.012997271 -0.01639425 -0.0318576 0.016231665 -0.0056520626
-0.041788485 0.030369153 -0.08535766 -0.059531316 0.009085527 -0.07721417 -0.014070901 0.009017167
-0.00568559 -0.061895385 -0.003689182 0.03191273 -0.017016584 0.0050483784 -0.00032584972 -0.035088915
-0.059977606 -0.059102908 0.01226227 0.037286837 -0.06552718 -0.023251608 0.045063015 -0.06468973
0.042758547 0.043427616 0.029633408 0.0004926992 -0.025056511 0.026530238 0.03093726 -0.03385808
-0.067275085 -0.037393384 -0.032933462 0.041578375 0.028833216 0.045550283 -0.023806306 -0.04905728
-0.0074469093 0.031414285 0.02766012 0.011682741 0.01169528 -0.00351861 0.04514497 -0.03435876
-0.04110005 -0.060775563 0.026100712 -0.0016333435 -0.07377945 -0.07498793 0.010279296 -0.001282514
-0.044660687 -0.010632641 0.009931913 0.022993444 -0.030647805 0.029278386 0.027364705 0.0072645554
0.048064858 -0.073088035 -0.04922864 0.011623754 -0.006596145 0.0043298625 -0.016620958 -0.052214094
0.00533625 0.039416216 -0.06537966 -0.02830795 -0.02499728 -0.038557164 0.013580837 -0.0505392
0.002607915 -0.07535301 -0.02063757 0.0064047584 0.018713454 0.00776896 -0.05273638 -0.053736992
0.006918476 -0.0099438345 -0.047629744 -0.020834265 -0.053104438 -0.052734144 -0.0045704236 -0.054618396
0.043943938 -0.049426828 -0.01599958 -0.03988784 1.5190667e-05 0.018291378 -0.017663296 -0.06035833
0.022770299 0.0016088496 -0.04697186 0.005753297 0.037486512 -0.048159484 -0.06925992 -0.04800153
-0.002396132 -0.06225525 -0.057983827 0.0014681965 0.04369881 -0.022433905 -0.024212735 -0.040089007
-0.06200193 -0.017447973 0.016053597 0.033549625 -0.039702322 0.043416 -0.011162192 0.006038562
-0.029349916 -0.02963639 0.028175328 -0.06417713 -0.0055238195 -0.008426708 -0.07374816 -0.019983409
-0.055980366 0.051045097 0.0358675 0.042861365 0.029049475 0.021819605 -0.012465858 0.022333322
-0.0014348784 -0.067795135 0.03733676 0.019310618 -0.029674761 0.045200855 -0.04612696 -0.056619793
0.031682506 -0.050797738 0.023485929 -0.029280996 -0.06900213 0.036127526 0.03859367 -0.032489408
-0.06670437 -0.016526708 -0.048604283 0.019617213 -0.046717793 -0.042783882 -0.06466291 0.020972474
-0.075269565 0.014864388 -0.017067246 0.0467245 -0.012857573 -0.020055678 -0.07086478 -0.0030012599
-0.038128756 -0.055547215 -0.023975434 -0.0018681067 -0.048785333 -0.00012606483 0.012193911 -0.04531932
0.0018095963 -0.053299643 -0.029061204 0.023590237 0.00955156 0.03431256 -0.027268965 0.0041964035
0.017750839 -0.04572761 -0.014635468 -0.029596528 -0.049965505 -0.034817714 -0.03399368 -0.046053946
-0.07518016 0.003946251 0.011910602 0.027659748 0.04725732 0.009167297 -0.015701836 0.0077290065
00000000: 9ee1 9dbd 82cd 563b 55a3 08bd 9381 e5b7
00000010: 88aa 443d 6447 893a 2ad7 6d3c bcb1 003d
00000020: 5d38 82bd 2a67 6f3b 0b04 ff3c edbc 81bb
00000030: 4c1a 0d3d 6101 523c 6003 413d 17cf a1bd
00000040: 3767 b73c b620 17bd b276 dfbb 6556 133d
00000050: c16e 523c e6e0 97bb b4c9 7fbd 2650 13bd
00000060: 9303 fa3c e689 19bd ab25 2c3d 230b 60bd
00000070: 6461 0d3d d81a 21bd 691d 42bd 6a9f 6f3c
00000080: 420a 693c cc4a 03bd 5316 e1bc 8e61 97bd
00000090: eb5e 67bd 795d 42bd 6814 8bbc 7627 19bd
000000a0: be1a 15bd 5758 21bd 271c a43c 81f2 543c
000000b0: 3c4d 86bc 1d7d 02bd 45f8 843c f034 b9bb
000000c0: 672a 2bbd bbc8 f83c ffcf aebd 1cd7 73bd
000000d0: 76db 143c 7622 9ebd a389 66bc bdbc 133c
000000e0: 304e babb 0486 7dbd 34c6 71bb ecb6 023d
000000f0: 5d66 8bbc de6c a53b cfd6 aab9 65b9 0fbd
00000100: 14ab 75bd e415 72bd b0e7 483c 15ba 183d
00000110: 1d33 86bd 287a bebc ff93 383d 0d7c 84bd
00000120: 9623 2f3d 28e1 313d c3c1 f23c 7c28 013a
00000130: 5043 cdbc f155 d93c 2370 fd3c c5ae 0abd
00000140: 85c7 89bd ce29 19bd 3de5 06bd 164e 2a3d
00000150: a333 ec3c ef92 3a3d 7105 c3bc 49f0 48bd
00000160: 3405 f4bb 44ac 003d 7a97 e23c f868 3f3c
00000170: 8f9d 3f3c 7b98 66bb efe9 383d c5bb 0cbd
00000180: 8758 28bd ccef 78bd 29d1 d53c ea15 d6ba
00000190: ae19 97bd 4693 99bd 7e6a 283c 071a a8ba
000001a0: 20ee 36bd 8734 2ebc 76b9 223c bf5c bc3c
000001b0: 1b11 fbbc 3ad9 ef3c f22b e03c 820b ee3b
000001c0: a8df 443d 2eaf 95bd f8a3 49bd 8f71 3e3c
000001d0: 7a24 d8bb 85e1 8d3b ad28 88bc 72de 55bd
000001e0: b6db ae3b e672 213d c5e5 85bd 13e6 e7bc
000001f0: 19c7 ccbc 1eee 1dbd 2982 5e3c 3102 4fbd
00000200: 8ee9 2a3b ae52 9abd 1f10 a9bc 02df d13b
00000210: f54c 993c c392 fe3b 1a02 58bd 521b 5cbd
00000220: 62b4 e23b 77eb 22bc 6817 43bd 9fac aabc
00000230: 0a84 59bd c2ff 57bd 7ec3 95bb 8ab7 5fbd
00000240: 8ffe 333d c973 4abd 8d11 83bc 6f61 23bd
00000250: 6bdb 7e37 cdd7 953c 9eb2 90bc 4c3a 77bd
00000260: c788 ba3c 09e0 d23a 9165 40bd 2786 bc3b
00000270: 758b 193d e142 45bd 25d8 8dbd 419d 44bd
00000280: 6d08 1dbb 5cff 7ebd 7380 6dbd 8070 c03a
00000290: 86fd 323d 4fc7 b7bc c959 c6bc 5f34 24bd
000002a0: bcf5 7dbd 0def 8ebc d582 833c 556b 093d
000002b0: e79e 22bd fad4 313d a0e1 36bc 21df c53b
000002c0: 3c6f f0bc 04c8 f2bc f2cf e63c 4d6f 83bd
000002d0: 2801 b5bb 2d10 0abc 4609 97bd 3fb4 a3bc
000002e0: ab4b 65bd aa14 513d cde9 123d 668f 2f3d
000002f0: 2af9 ed3c 07bf b23c 993d 4cbc 5ff4 b63c
00000300: 8812 bcba 2dd8 8abd 6eee 183d 4d31 9e3c
00000310: 7c18 f3bc 8824 393d a0ef 3cbd 28ea 67bd
00000320: 84c5 013d 4a11 50bd 9065 c03c b3de efbc
00000330: fd50 8dbd 75fa 133d 6514 1e3d 9d13 05bd
00000340: 4d9c 88bd 0563 87bc 4915 47bd 47b4 a03c
00000350: 285b 3fbd 273e 2fbd fd6d 84bd 77ce ab3c
00000360: ee26 9abd c389 733c 9cd0 8bbc 3062 3f3d
00000370: 92a8 52bc ce4b a4bc 8e21 91bd c9b0 44bb
00000380: e62c 1cbd 7a85 63bd 2168 c4bc 42db f4ba
00000390: 21d3 47bd 4530 04b9 f8c8 473c c0a0 39bd
000003a0: fa2f ed3a ba50 5abd c311 eebc 5040 c13c
000003b0: 257e 1c3c 548b 0c3d 2a63 dfbc fc81 893b
000003c0: 356a 913c e04c 3bbd 9ac9 6fbc 6b74 f2bc
000003d0: a1a8 4cbd 059d 0ebd f53c 0bbd 10a3 3cbd
000003e0: 0ef8 99bd 8d4f 813b b024 433c b296 e23c
000003f0: e490 413d 6e32 163c 23a1 80bc 9b43 fd3b

layers.2.bias f4 [256]
0.05190191 -0.0015254022 0.0065735136 0.12847584 -0.07946276 -0.11124369 -0.04444923 -0.054439582
-0.10730525 0.049785197 0.1884564 0.19985065 -0.025171997 -0.038481716 -0.045682907 -0.015996221
-0.059249684 -0.008690086 -0.20564348 -0.10640124 0.04398864 -0.07471673 -0.0064259926 0.022537095
0.123748906 0.044922944 -0.18784438 -0.06645403 -0.12386554 0.04190763 -0.052346822 -0.048658956
-0.103178985 0.008084167 0.010464874 -0.07571881 -0.0075654667 -0.037293546 -0.0029293615 0.0034627304
-0.004762369 0.014952305 -0.026040364 -0.06809912 0.0113601405 0.02297221 0.025246557 -0.054764543
0.04487824 0.11398846 0.10412103 0.029377108 -0.01861995 -0.0051119155 -0.015603114 0.090866886
-0.0035028707 0.021139035 -0.044279963 -0.044744134 -0.030946948 0.13823482 0.06901445 -0.073335394
-0.06788752 -0.16154198 0.073271014 0.15576005 0.08810026 -0.05720673 0.010578623 0.01819941
-0.0068006637 -0.013887989 0.0127454 -0.016176531 0.03719445 -0.03611703 0.01615157 0.044830557
0.03761266 0.024488777 -0.04046198 -0.057729017 -0.054728616 0.003903712 0.013920026 -0.08732698
-0.04693461 -0.026822394 0.039751172 0.2122414 -0.053736992 -0.17945889 -0.228985 0.14185447
0.12511587 0.007729526 -0.023611473 0.009978667 -0.007848031 -0.05712701 -0.31540737 -0.02381443
-0.090902336 0.025200743 0.05098549 -0.036586486 0.21317686 0.07325367 -0.002724098 0.14619948
-0.066754095 0.09087915 0.011797153 -0.03702756 -0.1774383 0.0015189163 -0.04618433 0.116034254
-0.06541393 0.024601495 0.16409573 0.037871707 -0.012375706 0.04159104 0.16402388 0.19632953
0.019020127 0.004870824 0.07131222 -0.07886671 -0.14661235 -0.04682359 -0.06634674 -0.054295037
0.0876374 -0.109061696 0.012527176 -0.06845069 -0.032356296 -0.06405196 -0.04246556 0.12086467
0.09170498 -0.09495676 0.029132163 0.03312494 0.030781543 -0.07964254 0.16454783 0.1238324
0.30830026 -0.060939476 0.015188674 0.025941422 0.024511129 0.029686488 -0.20730413 -0.04832407
0.09665711 -0.050152514 -0.021538882 -0.0057844967 -0.01731349 -0.024071546 -0.16734046 -0.07649742
-0.038148873 0.13222417 0.15559109 -0.11789709 0.037824024 -0.16022113 0.06405908 0.003883316
0.051586427 -0.024230989 -0.07253669 0.0054748314 -0.07166926 -0.016588176 -0.103937075 -0.13220245
0.057443306 -0.044697195 -0.030865364 0.027700728 -0.021268634 -0.0992008 -0.006133836 -0.008560732
-0.007969898 -0.0060210675 -0.20218289 -0.045884818 0.1388561 0.14468491 0.050428182 0.4723976
-0.14890437 -0.10934752 -0.0475463 -0.1455566 0.16186467 0.0060631437 -0.039326068 -0.005172512
-0.24863848 0.06549919 -0.029595643 -0.04796842 -0.061400667 -0.0010468658 -0.12075487 -0.043388873
-0.046441376 0.050288275 0.16712588 -0.08877137 -0.057815444 -0.10912301 0.076716445 -0.02444091
0.020677423 -0.016574947 -0.04926892 -0.19583313 0.030758819 0.04462211 0.007168443 -0.10128404
-0.09487608 -0.018232148 0.049800098 -0.10052788 -0.06592206 -0.021672366 -0.005399677 0.059527818
-0.18323869 0.03456588 0.049096018 -0.08295435 0.2327444 0.002407634 0.008631501 -0.2778341
0.030955514 -0.0588928 -0.025913332 -0.12673876 -0.071030185 0.09647286 -0.00734167 -0.020344017
00000000: 1997 543d 01f0 c7ba a166 d73b 2c8f 033e
00000010: 5fbd a2bd bbd3 e3bd 6510 36bd 0afc 5ebd
00000020: dbc2 dbbd 90eb 4b3d b7fa 403e a6a5 4c3e
00000030: 8135 cebc 019f 1dbd 001e 3bbd 820a 83bc
00000040: ccaf 72bd dd60 0ebc 3494 52be e5e8 d9bd
00000050: 6f2d 343d 1605 99bd 2291 d2bb b79f b83c
00000060: 1170 fd3d 1f01 383d 475a 40be 0d19 88bd
00000070: 37ad fdbd 56a7 2b3d 9f69 56bd 9d4e 47bd
00000080: 814f d3bd 7473 043c dd74 2b3c 7712 9bbd
00000090: bce7 f7bb 1ec1 18bd 88fa 3fbb faee 623b
000000a0: a60d 9cbb 83fa 743c 9a52 d5bc 8d77 8bbd
000000b0: e21f 3a3c 3730 bc3c ded1 ce3c c950 60bd
000000c0: 3fd2 373d c872 e93d 683d d53d 43a8 f03c
000000d0: de88 98bc db81 a7bb 34a4 7fbc 6b18 ba3d
000000e0: 6b90 65bb c52b ad3c e85e 35bd a045 37bd
000000f0: 7484 fdbc 6e8d 0d3e 7357 8d3d de30 96bd
00000100: 9d08 8bbd 436b 25be 1d0f 963d 907f 1f3e
00000110: e96d b43d 9b51 6abd f651 2d3c ee16 953c
00000120: 1ad8 debb 738a 63bc 15d2 503c a584 84bc
00000130: 3559 183d 73ef 13bd 4c50 843c 3fa0 373d
00000140: bc0f 1a3d b09c c83c 76bb 25bd 4375 6cbd
00000150: 1d2b 60bd 6bd5 7f3b d210 643c 7dd8 b2bd
00000160: 813e 40bd a3ba dbbc 20d2 223d cf55 593e
00000170: 521b 5cbd 12c4 37be 0b7b 6abe 4c42 113e
00000180: 601e 003e f747 fd3b d96c c1bc 907d 233c
00000190: 0795 00bc 03fe 69bd 137d a1be 7b16 c3bc
000001a0: 012b babd ca71 ce3c 29d6 503d b6db 15bd
000001b0: 094b 5a3e 0506 963d c886 32bb 51b5 153e
000001c0: 5fb6 88bd d91e ba3d d948 413c 36aa 17bd
000001d0: 63b2 35be 6016 c73a c82b 3dbd 5ea3 ed3d
000001e0: bdf7 85bd 1389 c93c b608 283e 5d1f 1b3d
000001f0: 79c3 4abc 5e5b 2a3d e0f5 273e 9c0a 493e
00000200: 19d0 9b3c 6f9b 9f3b 240c 923d df84 a1bd
00000210: 8c21 16be 18ca 3fbd cde0 87bd 7964 5ebd
00000220: 3d7b b33d bd5b dfbd c93e 4d3c e02f 8cbd
00000230: 0988 04bd ad2d 83bd 5ef0 2dbd e587 f73d
00000240: d2cf bb3d b178 c2bd 93a6 ee3c 04ae 073d
00000250: 9329 fc3c a11b a3bd 3a7f 283e d79b fd3d
00000260: 88d9 9d3e ac9b 79bd ebd9 783c 1b83 d43c
00000270: 90cb c83c 1431 f33c 8947 54be 76ef 45bd
00000280: 2af4 c53d b96c 4dbd 4f72 b0bc e08b bdbb
00000290: 05d5 8dbc b131 c5bc 4c5b 2bbe aeaa 9cbd
000002a0: fe41 1cbd c665 073e 4553 1f3e 0874 f1bd
000002b0: 5ded 1a3d 0211 24be 6831 833d 3b7f 7e3b
000002c0: 4a4c 533d 1180 c6bc 1e8e 94bd 3766 b33b
000002d0: 55c7 92bd ede3 87bc f6dc d4bd 1460 07be
000002e0: ac49 6b3d 6814 37bd 5cd9 fcbc a3ec e23c
000002f0: 8f3b aebc ca29 cbbd 59fe c8bb 5042 0cbc
00000300: 2d94 02bc 604c c5bb 0809 4fbe b8f1 3bbd
00000310: 4b30 0e3e 4828 143e c88d 4e3d 19de f13e
00000320: 637a 18be 98f1 dfbd e9bf 42bd ca0c 15be
00000330: dabf 253e 56ad c63b 5f14 21bd 2d7e a9bb
00000340: 169b 7ebe 7024 863d 9072 f2bc 897a 44bd
00000350: 447f 7bbd fd36 89ba 544e f7bd 88b8 31bd
00000360: 5039 3ebd 14fb 4d3d 0c23 2b3e c4cd b5bd
00000370: e3cf 6cbd e27b dfbd 831d 9d3d 4e38 c8bc
00000380: b363 a93c 2fc8 87bc 35ce 49bd 7b88 48be
00000390: ebf9 fb3c acc5 363d 42e5 ea3b 026e cfbd
000003a0: 644e c2bd 965b 95bc 30fb 4b3d 90e1 cdbd
000003b0: 2502 87bd 3f8a b1bc c6ef b0bb 71d3 733d
000003c0: eca2 3bbe f494 0d3d e818 493d f8e3 a9bd
000003d0: 8c54 6e3e 65c9 1d3b 246b 0d3c 4540 8ebe
000003e0: 6b96 fd3c 9439 71bd 3248 d4bc cec7 01be
000003f0: 4678 91bd 9093 c53d 6492 f0bb 7fa8 a6bc

out.weight f4 [2, 256]
0.007096359 0.40104666 -0.011611647 -0.856208 0.02943299 0.41459098 0.24139746 0.0048695644
0.69486845 0.009026108 0.084571056 0.1316183 0.012321317 0.010620887 0.009597382 0.07731695
-0.006402244 -0.01704974 0.439641 0.17684565 0.009041568 0.010206654 0.008500469 -0.016408244
0.012719443 -0.017791446 0.5461494 0.013982425 0.3550334 0.0056519206 0.2264168 0.13611759
0.35419792 0.018031355 0.0005171912 0.23720211 0.0134789515 -0.017529184 -0.016844476 -0.018344652
0.013858746 0.006361545 -0.016305426 0.015306395 0.119442195 -0.015824491 -0.23305464 0.5146724
0.007922118 0.53573185 0.030061333 0.010615691 0.011383288 0.16428912 0.012019382 0.043405198
0.009000218 -2.0211794 0.0131099615 0.0050243507 0.009887583 0.1260178 -0.41451913 0.01083269
0.0091442 0.42887458 0.6763182 0.34562585 0.1299693 0.013240533 -0.0038896957 0.5398847
0.012445183 0.009528464 0.6214213 0.0067822235 0.010658531 0.49240792 0.009718826 0.009462899
0.30654642 0.011708692 0.34219953 -0.017952379 0.27415612 0.0102657 0.0061250813 0.23552053
-0.017529184 0.5723428 0.017334178 0.14989553 -0.017366016 0.2542725 0.281701 0.0262266
-0.02250058 0.008705188 0.007802302 0.20671368 0.007599553 0.011823804 0.2709246 0.0091301035
0.5417795 -0.4169589 0.006828324 0.010206467 0.087004006 0.07723555 0.016268173 0.010995315
0.08561011 0.34366247 0.0072535365 0.014205198 0.44870123 0.1861774 0.011351809 0.09709644
0.009589745 0.49429372 0.04633116 0.0064759115 0.015238594 -0.013556251 0.12865445 0.1148651
0.007777314 0.00762424 0.030263284 -0.017279217 0.3246907 -0.019606408 0.009574471 0.011890858
0.069269806 0.2969163 0.23222011 0.6960524 0.0064066057 -0.019488316 0.62904626 0.015824702
0.009359042 0.23078191 0.096700154 -0.0047901226 0.007499529 0.449946 0.13370633 0.04454372
0.1998932 -0.015284228 0.011782453 -0.28097674 -0.005574204 0.043058157 0.4067245 0.39785963
0.018624995 0.012847701 0.02693663 0.0143612875 0.0046627177 -0.009433096 0.44825834 -0.017930027
-0.016981194 0.033514727 0.16564292 0.45998082 0.00957652 1.1841453 0.21103702 0.007095707
0.02108969 -0.00015551211 -0.018504092 0.012516894 0.054086015 0.011261098 0.56153613 0.29128882
0.1300418 0.010485119 0.009951099 0.010239623 0.009620292 0.0007623977 -0.017025152 0.25497037
0.12573488 0.0051595764 0.533282 0.0016802822 -0.9687227 0.07245836 0.007881139 -0.55200535
0.20909277 0.4877237 -0.018000435 0.3473944 0.07398293 0.034920793 -0.016508082 0.2849572
0.43908635 0.04668621 0.06387587 0.010791257 0.01528218 -0.019823594 0.31138504 0.013640629
0.012071536 0.0049414714 0.018355418 0.41042763 0.0076349434 0.258157 0.3395894 0.30893862
0.09577797 0.033810847 0.010262306 0.40664324 -0.019724874 0.0578906 -0.01856519 0.4845561
0.101262264 0.013089472 0.010114267 0.43001753 0.0067019435 0.3065724 0.17387408 0.37384477
0.20913681 -0.018049607 -0.02027361 0.4370381 -1.1084511 0.013847569 0.16854356 0.24434082
0.014479565 0.011242472 0.007199084 0.25918087 -0.016795302 0.04663588 -0.014256421 0.0127050225
00000000: 9388 e83b fd55 cd3e c73e 3ebc 7330 5bbf
00000010: 741d f13c 4545 d43e e530 773e de90 9f3b
00000020: e6e2 313f 3ee2 133c 9733 ad3d f3c6 063e
00000030: 59df 493c 3b03 2e3c 563e 1d3c 5958 9e3d
00000040: eac9 d1bb e5ab 8bbc a018 e13e 0717 353e
00000050: 1623 143c cf39 273c 8d45 0b3c 956a 86bc
00000060: 3665 503c 5ebf 91bc 72d0 0b3f 8b16 653c
00000070: f0c6 b53e bf33 b93b ced9 673e 6962 0b3e
00000080: 6e59 b53e 7eb6 933c 1d94 073a 1ce5 723e
00000090: d2d6 5c3c 5d99 8fbc 6dfd 89bc 8647 96bc
000000a0: cb0f 633c 8274 d03b f592 85bc acc7 7a3c
000000b0: 1c9e f43d 5da2 81bc e0a5 6ebe 92c1 033f
000000c0: c5cb 013c b925 093f 2f43 f63c 6fed 2d3c
000000d0: f880 3a3c 683b 283e f1ec 443c a6c9 313d
000000e0: a675 133c 015b 01c0 2acb 563c 4fa3 a43b
000000f0: 87ff 213c cf0a 013e da3b d4be 987b 313c
00000100: 8ed1 153c 7395 db3e 3123 2d3f dff5 b03e
00000110: ac16 053e d2ee 583c 44ea 7ebb e235 0a3f
00000120: e1e6 4b3c 461d 1c3c 7715 1f3f 6a3d de3b
00000130: 1fa1 2e3c e41c fc3e b63b 1f3c 460a 1b3c
00000140: a7f3 9c3e d0d5 3f3c c734 af3e de10 93bc
00000150: 315e 8c3e 7731 283c e8b4 c83b 4b2c 713e
00000160: 5d99 8fbc 0f85 123f 6800 8e3c 377e 193e
00000170: 2d43 8ebc 0130 823e 1d3b 903e 2bd9 d63c
00000180: 2353 b8bc 34a0 0e3c 74aa ff3b c0ac 533e
00000190: ac05 f93b a1b8 413c a1b6 8a3e 6e96 153c
000001a0: 10b2 0a3f a37b d5be 22c0 df3b 0639 273c
000001b0: 282f b23d ac2d 9e3d d544 853c b225 343c
000001c0: 5a54 af3d 87f4 af3e 13af ed3b ebbc 683c
000001d0: 2bbc e53e 4aa5 3e3e f0fc 393c 80da c63d
000001e0: 4e1e 1d3c 1114 fd3e bec5 3d3d e233 d43b
000001f0: 4cab 793c 0a1b 5ebc febd 033e 653e eb3d
00000200: d7d8 fe3b c3d4 f93b b5ea f73c 258d 8dbc
00000210: dc3d a63e 9e9d a0bc 3ede 1c3c e0d1 423c
00000220: 54dd 8d3d 6a05 983e 1ccb 6d3e 7d30 323f
00000230: 81ee d13b f6a5 9fbc 2d09 213f cea2 813c
00000240: ab56 193c 1852 6c3e bb0a c63d 76f6 9cbb
00000250: 9cbe f53b 525f e63e 50ea 083e 7a73 363d
00000260: ceb0 4c3e b36a 7abc 310b 413c 2fdc 8fbe
00000270: d0a7 b6bb c05d 303d 323e d03e 42b4 cb3e
00000280: 7293 983c 2a7f 523c 35aa dc3c 9b4b 6b3c
00000290: b6c9 983b 468d 1abc 1e82 e53e fee1 92bc
000002a0: 251c 8bbc bd46 093d 4c9e 293e 9b82 eb3e
000002b0: d6e6 1c3c 1392 973f 171a 583e 1b83 e83b
000002c0: 49c4 ac3c f710 23b9 e595 97bc a913 4d3c
000002d0: 4c89 5d3d 7880 383c d5c0 0f3f cf23 953e
000002e0: ad29 053e c7c9 2b3c ef09 233c 17c4 273c
000002f0: 6e9e 1d3c a5db 473a 5578 8bbc 7a8b 823e
00000300: a5c0 003e aa11 a93b 2b85 083f ea3c dc3a
00000310: 36fe 77bf 0c65 943d e51f 013c 3950 0dbf
00000320: 6a1c 563e ecb6 f93e a675 93bc aedd b13e
00000330: 5d84 973d 1b09 0f3d f53b 87bc e9e5 913e
00000340: edcf e03e 0a3a 3f3d 5ad1 823d d0cd 303c
00000350: 1c62 7a3c 1765 a2bc dc6d 9f3e f27c 5f3c
00000360: b1c7 453c 11ec a13b 1a5e 963c 9223 d23e
00000370: 8c2e fa3b 282d 843e a9de ad3e 342d 9e3e
00000380: 3e27 c43d 3e7d 0a3d 3b23 283c 8b33 d03e
00000390: 0f96 a1bc b21e 6d3d 0616 98bc bd17 f83e
000003a0: 9762 cf3d 3a75 563c 4fb6 253c 422b dc3e
000003b0: fa9b db3b 0ff7 9c3e 0c0c 323e 9568 bf3e
000003c0: f627 563e c5dc 93bc d714 a6bc 75c3 df3e
000003d0: bae1 8dbf eae0 623c af96 2c3e 7b34 7a3e
000003e0: b33b 6d3c 5832 383c 4be6 eb3b 5bb3 843e
000003f0: 4d96 89bc 4405 3f3d c393 69bc ba28 503c

out.bias f4 [2]
0.020608542 0.020905308
00000000: 3fd3 a83c 9c41 ab3c
